{"class_name": "Model", "config": {"name": "model_3", "layers": [{"name": "input_4", "class_name": "InputLayer", "config": {"batch_input_shape": [null, null, null, 3], "dtype": "float32", "sparse": false, "name": "input_4"}, "inbound_nodes": []}, {"name": "conv2d_234", "class_name": "Conv2D", "config": {"name": "conv2d_234", "trainable": false, "filters": 32, "kernel_size": [3, 3], "strides": [2, 2], "padding": "valid", "data_format": "channels_last", "dilation_rate": [1, 1], "activation": "linear", "use_bias": false, "kernel_initializer": {"class_name": "VarianceScaling", "config": {"scale": 1.0, "mode": "fan_avg", "distribution": "uniform", "seed": null}}, "bias_initializer": {"class_name": "Zeros", "config": {}}, "kernel_regularizer": null, "bias_regularizer": null, "activity_regularizer": null, "kernel_constraint": null, "bias_constraint": null}, "inbound_nodes": [[["input_4", 0, 0, {}]]]}, {"name": "batch_normalization_233", "class_name": "BatchNormalization", "config": {"name": "batch_normalization_233", "trainable": false, "axis": 3, "momentum": 0.99, "epsilon": 0.001, "center": true, "scale": false, "beta_initializer": {"class_name": "Zeros", "config": {}}, "gamma_initializer": {"class_name": "Ones", "config": {}}, "moving_mean_initializer": {"class_name": "Zeros", "config": {}}, "moving_variance_initializer": {"class_name": "Ones", "config": {}}, "beta_regularizer": null, "gamma_regularizer": null, "beta_constraint": null, "gamma_constraint": null}, "inbound_nodes": [[["conv2d_234", 0, 0, {}]]]}, {"name": "activation_233", "class_name": "Activation", "config": {"name": "activation_233", "trainable": false, "activation": "relu"}, "inbound_nodes": [[["batch_normalization_233", 0, 0, {}]]]}, {"name": "conv2d_235", "class_name": "Conv2D", "config": {"name": "conv2d_235", "trainable": false, "filters": 32, "kernel_size": [3, 3], "strides": [1, 1], "padding": "valid", "data_format": "channels_last", "dilation_rate": [1, 1], "activation": "linear", "use_bias": false, "kernel_initializer": {"class_name": "VarianceScaling", "config": {"scale": 1.0, "mode": "fan_avg", "distribution": "uniform", "seed": null}}, "bias_initializer": {"class_name": "Zeros", "config": {}}, "kernel_regularizer": null, "bias_regularizer": null, "activity_regularizer": null, "kernel_constraint": null, "bias_constraint": null}, "inbound_nodes": [[["activation_233", 0, 0, {}]]]}, {"name": "batch_normalization_234", "class_name": "BatchNormalization", "config": {"name": "batch_normalization_234", "trainable": false, "axis": 3, "momentum": 0.99, "epsilon": 0.001, "center": true, "scale": false, "beta_initializer": {"class_name": "Zeros", "config": {}}, "gamma_initializer": {"class_name": "Ones", "config": {}}, "moving_mean_initializer": {"class_name": "Zeros", "config": {}}, "moving_variance_initializer": {"class_name": "Ones", "config": {}}, "beta_regularizer": null, "gamma_regularizer": null, "beta_constraint": null, "gamma_constraint": null}, "inbound_nodes": [[["conv2d_235", 0, 0, {}]]]}, {"name": "activation_234", "class_name": "Activation", "config": {"name": "activation_234", "trainable": false, "activation": "relu"}, "inbound_nodes": [[["batch_normalization_234", 0, 0, {}]]]}, {"name": "conv2d_236", "class_name": "Conv2D", "config": {"name": "conv2d_236", "trainable": false, "filters": 64, "kernel_size": [3, 3], "strides": [1, 1], "padding": "same", "data_format": "channels_last", "dilation_rate": [1, 1], "activation": "linear", "use_bias": false, "kernel_initializer": {"class_name": "VarianceScaling", "config": {"scale": 1.0, "mode": "fan_avg", "distribution": "uniform", "seed": null}}, "bias_initializer": {"class_name": "Zeros", "config": {}}, "kernel_regularizer": null, "bias_regularizer": null, "activity_regularizer": null, "kernel_constraint": null, "bias_constraint": null}, "inbound_nodes": [[["activation_234", 0, 0, {}]]]}, {"name": "batch_normalization_235", "class_name": "BatchNormalization", "config": {"name": "batch_normalization_235", "trainable": false, "axis": 3, "momentum": 0.99, "epsilon": 0.001, "center": true, "scale": false, "beta_initializer": {"class_name": "Zeros", "config": {}}, "gamma_initializer": {"class_name": "Ones", "config": {}}, "moving_mean_initializer": {"class_name": "Zeros", "config": {}}, "moving_variance_initializer": {"class_name": "Ones", "config": {}}, "beta_regularizer": null, "gamma_regularizer": null, "beta_constraint": null, "gamma_constraint": null}, "inbound_nodes": [[["conv2d_236", 0, 0, {}]]]}, {"name": "activation_235", "class_name": "Activation", "config": {"name": "activation_235", "trainable": false, "activation": "relu"}, "inbound_nodes": [[["batch_normalization_235", 0, 0, {}]]]}, {"name": "max_pooling2d_12", "class_name": "MaxPooling2D", "config": {"name": "max_pooling2d_12", "trainable": false, "pool_size": [3, 3], "padding": "valid", "strides": [2, 2], "data_format": "channels_last"}, "inbound_nodes": [[["activation_235", 0, 0, {}]]]}, {"name": "conv2d_237", "class_name": "Conv2D", "config": {"name": "conv2d_237", "trainable": false, "filters": 80, "kernel_size": [1, 1], "strides": [1, 1], "padding": "valid", "data_format": "channels_last", "dilation_rate": [1, 1], "activation": "linear", "use_bias": false, "kernel_initializer": {"class_name": "VarianceScaling", "config": {"scale": 1.0, "mode": "fan_avg", "distribution": "uniform", "seed": null}}, "bias_initializer": {"class_name": "Zeros", "config": {}}, "kernel_regularizer": null, "bias_regularizer": null, "activity_regularizer": null, "kernel_constraint": null, "bias_constraint": null}, "inbound_nodes": [[["max_pooling2d_12", 0, 0, {}]]]}, {"name": "batch_normalization_236", "class_name": "BatchNormalization", "config": {"name": "batch_normalization_236", "trainable": false, "axis": 3, "momentum": 0.99, "epsilon": 0.001, "center": true, "scale": false, "beta_initializer": {"class_name": "Zeros", "config": {}}, "gamma_initializer": {"class_name": "Ones", "config": {}}, "moving_mean_initializer": {"class_name": "Zeros", "config": {}}, "moving_variance_initializer": {"class_name": "Ones", "config": {}}, "beta_regularizer": null, "gamma_regularizer": null, "beta_constraint": null, "gamma_constraint": null}, "inbound_nodes": [[["conv2d_237", 0, 0, {}]]]}, {"name": "activation_236", "class_name": "Activation", "config": {"name": "activation_236", "trainable": false, "activation": "relu"}, "inbound_nodes": [[["batch_normalization_236", 0, 0, {}]]]}, {"name": "conv2d_238", "class_name": "Conv2D", "config": {"name": "conv2d_238", "trainable": false, "filters": 192, "kernel_size": [3, 3], "strides": [1, 1], "padding": "valid", "data_format": "channels_last", "dilation_rate": [1, 1], "activation": "linear", "use_bias": false, "kernel_initializer": {"class_name": "VarianceScaling", "config": {"scale": 1.0, "mode": "fan_avg", "distribution": "uniform", "seed": null}}, "bias_initializer": {"class_name": "Zeros", "config": {}}, "kernel_regularizer": null, "bias_regularizer": null, "activity_regularizer": null, "kernel_constraint": null, "bias_constraint": null}, "inbound_nodes": [[["activation_236", 0, 0, {}]]]}, {"name": "batch_normalization_237", "class_name": "BatchNormalization", "config": {"name": "batch_normalization_237", "trainable": false, "axis": 3, "momentum": 0.99, "epsilon": 0.001, "center": true, "scale": false, "beta_initializer": {"class_name": "Zeros", "config": {}}, "gamma_initializer": {"class_name": "Ones", "config": {}}, "moving_mean_initializer": {"class_name": "Zeros", "config": {}}, "moving_variance_initializer": {"class_name": "Ones", "config": {}}, "beta_regularizer": null, "gamma_regularizer": null, "beta_constraint": null, "gamma_constraint": null}, "inbound_nodes": [[["conv2d_238", 0, 0, {}]]]}, {"name": "activation_237", "class_name": "Activation", "config": {"name": "activation_237", "trainable": false, "activation": "relu"}, "inbound_nodes": [[["batch_normalization_237", 0, 0, {}]]]}, {"name": "max_pooling2d_13", "class_name": "MaxPooling2D", "config": {"name": "max_pooling2d_13", "trainable": false, "pool_size": [3, 3], "padding": "valid", "strides": [2, 2], "data_format": "channels_last"}, "inbound_nodes": [[["activation_237", 0, 0, {}]]]}, {"name": "conv2d_242", "class_name": "Conv2D", "config": {"name": "conv2d_242", "trainable": false, "filters": 64, "kernel_size": [1, 1], "strides": [1, 1], "padding": "same", "data_format": "channels_last", "dilation_rate": [1, 1], "activation": "linear", "use_bias": false, "kernel_initializer": {"class_name": "VarianceScaling", "config": {"scale": 1.0, "mode": "fan_avg", "distribution": "uniform", "seed": null}}, "bias_initializer": {"class_name": "Zeros", "config": {}}, "kernel_regularizer": null, "bias_regularizer": null, "activity_regularizer": null, "kernel_constraint": null, "bias_constraint": null}, "inbound_nodes": [[["max_pooling2d_13", 0, 0, {}]]]}, {"name": "batch_normalization_241", "class_name": "BatchNormalization", "config": {"name": "batch_normalization_241", "trainable": false, "axis": 3, "momentum": 0.99, "epsilon": 0.001, "center": true, "scale": false, "beta_initializer": {"class_name": "Zeros", "config": {}}, "gamma_initializer": {"class_name": "Ones", "config": {}}, "moving_mean_initializer": {"class_name": "Zeros", "config": {}}, "moving_variance_initializer": {"class_name": "Ones", "config": {}}, "beta_regularizer": null, "gamma_regularizer": null, "beta_constraint": null, "gamma_constraint": null}, "inbound_nodes": [[["conv2d_242", 0, 0, {}]]]}, {"name": "activation_241", "class_name": "Activation", "config": {"name": "activation_241", "trainable": false, "activation": "relu"}, "inbound_nodes": [[["batch_normalization_241", 0, 0, {}]]]}, {"name": "conv2d_240", "class_name": "Conv2D", "config": {"name": "conv2d_240", "trainable": false, "filters": 48, "kernel_size": [1, 1], "strides": [1, 1], "padding": "same", "data_format": "channels_last", "dilation_rate": [1, 1], "activation": "linear", "use_bias": false, "kernel_initializer": {"class_name": "VarianceScaling", "config": {"scale": 1.0, "mode": "fan_avg", "distribution": "uniform", "seed": null}}, "bias_initializer": {"class_name": "Zeros", "config": {}}, "kernel_regularizer": null, "bias_regularizer": null, "activity_regularizer": null, "kernel_constraint": null, "bias_constraint": null}, "inbound_nodes": [[["max_pooling2d_13", 0, 0, {}]]]}, {"name": "conv2d_243", "class_name": "Conv2D", "config": {"name": "conv2d_243", "trainable": false, "filters": 96, "kernel_size": [3, 3], "strides": [1, 1], "padding": "same", "data_format": "channels_last", "dilation_rate": [1, 1], "activation": "linear", "use_bias": false, "kernel_initializer": {"class_name": "VarianceScaling", "config": {"scale": 1.0, "mode": "fan_avg", "distribution": "uniform", "seed": null}}, "bias_initializer": {"class_name": "Zeros", "config": {}}, "kernel_regularizer": null, "bias_regularizer": null, "activity_regularizer": null, "kernel_constraint": null, "bias_constraint": null}, "inbound_nodes": [[["activation_241", 0, 0, {}]]]}, {"name": "batch_normalization_239", "class_name": "BatchNormalization", "config": {"name": "batch_normalization_239", "trainable": false, "axis": 3, "momentum": 0.99, "epsilon": 0.001, "center": true, "scale": false, "beta_initializer": {"class_name": "Zeros", "config": {}}, "gamma_initializer": {"class_name": "Ones", "config": {}}, "moving_mean_initializer": {"class_name": "Zeros", "config": {}}, "moving_variance_initializer": {"class_name": "Ones", "config": {}}, "beta_regularizer": null, "gamma_regularizer": null, "beta_constraint": null, "gamma_constraint": null}, "inbound_nodes": [[["conv2d_240", 0, 0, {}]]]}, {"name": "batch_normalization_242", "class_name": "BatchNormalization", "config": {"name": "batch_normalization_242", "trainable": false, "axis": 3, "momentum": 0.99, "epsilon": 0.001, "center": true, "scale": false, "beta_initializer": {"class_name": "Zeros", "config": {}}, "gamma_initializer": {"class_name": "Ones", "config": {}}, "moving_mean_initializer": {"class_name": "Zeros", "config": {}}, "moving_variance_initializer": {"class_name": "Ones", "config": {}}, "beta_regularizer": null, "gamma_regularizer": null, "beta_constraint": null, "gamma_constraint": null}, "inbound_nodes": [[["conv2d_243", 0, 0, {}]]]}, {"name": "activation_239", "class_name": "Activation", "config": {"name": "activation_239", "trainable": false, "activation": "relu"}, "inbound_nodes": [[["batch_normalization_239", 0, 0, {}]]]}, {"name": "activation_242", "class_name": "Activation", "config": {"name": "activation_242", "trainable": false, "activation": "relu"}, "inbound_nodes": [[["batch_normalization_242", 0, 0, {}]]]}, {"name": "average_pooling2d_23", "class_name": "AveragePooling2D", "config": {"name": "average_pooling2d_23", "trainable": false, "pool_size": [3, 3], "padding": "same", "strides": [1, 1], "data_format": "channels_last"}, "inbound_nodes": [[["max_pooling2d_13", 0, 0, {}]]]}, {"name": "conv2d_239", "class_name": "Conv2D", "config": {"name": "conv2d_239", "trainable": false, "filters": 64, "kernel_size": [1, 1], "strides": [1, 1], "padding": "same", "data_format": "channels_last", "dilation_rate": [1, 1], "activation": "linear", "use_bias": false, "kernel_initializer": {"class_name": "VarianceScaling", "config": {"scale": 1.0, "mode": "fan_avg", "distribution": "uniform", "seed": null}}, "bias_initializer": {"class_name": "Zeros", "config": {}}, "kernel_regularizer": null, "bias_regularizer": null, "activity_regularizer": null, "kernel_constraint": null, "bias_constraint": null}, "inbound_nodes": [[["max_pooling2d_13", 0, 0, {}]]]}, {"name": "conv2d_241", "class_name": "Conv2D", "config": {"name": "conv2d_241", "trainable": false, "filters": 64, "kernel_size": [5, 5], "strides": [1, 1], "padding": "same", "data_format": "channels_last", "dilation_rate": [1, 1], "activation": "linear", "use_bias": false, "kernel_initializer": {"class_name": "VarianceScaling", "config": {"scale": 1.0, "mode": "fan_avg", "distribution": "uniform", "seed": null}}, "bias_initializer": {"class_name": "Zeros", "config": {}}, "kernel_regularizer": null, "bias_regularizer": null, "activity_regularizer": null, "kernel_constraint": null, "bias_constraint": null}, "inbound_nodes": [[["activation_239", 0, 0, {}]]]}, {"name": "conv2d_244", "class_name": "Conv2D", "config": {"name": "conv2d_244", "trainable": false, "filters": 96, "kernel_size": [3, 3], "strides": [1, 1], "padding": "same", "data_format": "channels_last", "dilation_rate": [1, 1], "activation": "linear", "use_bias": false, "kernel_initializer": {"class_name": "VarianceScaling", "config": {"scale": 1.0, "mode": "fan_avg", "distribution": "uniform", "seed": null}}, "bias_initializer": {"class_name": "Zeros", "config": {}}, "kernel_regularizer": null, "bias_regularizer": null, "activity_regularizer": null, "kernel_constraint": null, "bias_constraint": null}, "inbound_nodes": [[["activation_242", 0, 0, {}]]]}, {"name": "conv2d_245", "class_name": "Conv2D", "config": {"name": "conv2d_245", "trainable": false, "filters": 32, "kernel_size": [1, 1], "strides": [1, 1], "padding": "same", "data_format": "channels_last", "dilation_rate": [1, 1], "activation": "linear", "use_bias": false, "kernel_initializer": {"class_name": "VarianceScaling", "config": {"scale": 1.0, "mode": "fan_avg", "distribution": "uniform", "seed": null}}, "bias_initializer": {"class_name": "Zeros", "config": {}}, "kernel_regularizer": null, "bias_regularizer": null, "activity_regularizer": null, "kernel_constraint": null, "bias_constraint": null}, "inbound_nodes": [[["average_pooling2d_23", 0, 0, {}]]]}, {"name": "batch_normalization_238", "class_name": "BatchNormalization", "config": {"name": "batch_normalization_238", "trainable": false, "axis": 3, "momentum": 0.99, "epsilon": 0.001, "center": true, "scale": false, "beta_initializer": {"class_name": "Zeros", "config": {}}, "gamma_initializer": {"class_name": "Ones", "config": {}}, "moving_mean_initializer": {"class_name": "Zeros", "config": {}}, "moving_variance_initializer": {"class_name": "Ones", "config": {}}, "beta_regularizer": null, "gamma_regularizer": null, "beta_constraint": null, "gamma_constraint": null}, "inbound_nodes": [[["conv2d_239", 0, 0, {}]]]}, {"name": "batch_normalization_240", "class_name": "BatchNormalization", "config": {"name": "batch_normalization_240", "trainable": false, "axis": 3, "momentum": 0.99, "epsilon": 0.001, "center": true, "scale": false, "beta_initializer": {"class_name": "Zeros", "config": {}}, "gamma_initializer": {"class_name": "Ones", "config": {}}, "moving_mean_initializer": {"class_name": "Zeros", "config": {}}, "moving_variance_initializer": {"class_name": "Ones", "config": {}}, "beta_regularizer": null, "gamma_regularizer": null, "beta_constraint": null, "gamma_constraint": null}, "inbound_nodes": [[["conv2d_241", 0, 0, {}]]]}, {"name": "batch_normalization_243", "class_name": "BatchNormalization", "config": {"name": "batch_normalization_243", "trainable": false, "axis": 3, "momentum": 0.99, "epsilon": 0.001, "center": true, "scale": false, "beta_initializer": {"class_name": "Zeros", "config": {}}, "gamma_initializer": {"class_name": "Ones", "config": {}}, "moving_mean_initializer": {"class_name": "Zeros", "config": {}}, "moving_variance_initializer": {"class_name": "Ones", "config": {}}, "beta_regularizer": null, "gamma_regularizer": null, "beta_constraint": null, "gamma_constraint": null}, "inbound_nodes": [[["conv2d_244", 0, 0, {}]]]}, {"name": "batch_normalization_244", "class_name": "BatchNormalization", "config": {"name": "batch_normalization_244", "trainable": false, "axis": 3, "momentum": 0.99, "epsilon": 0.001, "center": true, "scale": false, "beta_initializer": {"class_name": "Zeros", "config": {}}, "gamma_initializer": {"class_name": "Ones", "config": {}}, "moving_mean_initializer": {"class_name": "Zeros", "config": {}}, "moving_variance_initializer": {"class_name": "Ones", "config": {}}, "beta_regularizer": null, "gamma_regularizer": null, "beta_constraint": null, "gamma_constraint": null}, "inbound_nodes": [[["conv2d_245", 0, 0, {}]]]}, {"name": "activation_238", "class_name": "Activation", "config": {"name": "activation_238", "trainable": false, "activation": "relu"}, "inbound_nodes": [[["batch_normalization_238", 0, 0, {}]]]}, {"name": "activation_240", "class_name": "Activation", "config": {"name": "activation_240", "trainable": false, "activation": "relu"}, "inbound_nodes": [[["batch_normalization_240", 0, 0, {}]]]}, {"name": "activation_243", "class_name": "Activation", "config": {"name": "activation_243", "trainable": false, "activation": "relu"}, "inbound_nodes": [[["batch_normalization_243", 0, 0, {}]]]}, {"name": "activation_244", "class_name": "Activation", "config": {"name": "activation_244", "trainable": false, "activation": "relu"}, "inbound_nodes": [[["batch_normalization_244", 0, 0, {}]]]}, {"name": "mixed0", "class_name": "Concatenate", "config": {"name": "mixed0", "trainable": false, "axis": 3}, "inbound_nodes": [[["activation_238", 0, 0, {}], ["activation_240", 0, 0, {}], ["activation_243", 0, 0, {}], ["activation_244", 0, 0, {}]]]}, {"name": "conv2d_249", "class_name": "Conv2D", "config": {"name": "conv2d_249", "trainable": false, "filters": 64, "kernel_size": [1, 1], "strides": [1, 1], "padding": "same", "data_format": "channels_last", "dilation_rate": [1, 1], "activation": "linear", "use_bias": false, "kernel_initializer": {"class_name": "VarianceScaling", "config": {"scale": 1.0, "mode": "fan_avg", "distribution": "uniform", "seed": null}}, "bias_initializer": {"class_name": "Zeros", "config": {}}, "kernel_regularizer": null, "bias_regularizer": null, "activity_regularizer": null, "kernel_constraint": null, "bias_constraint": null}, "inbound_nodes": [[["mixed0", 0, 0, {}]]]}, {"name": "batch_normalization_248", "class_name": "BatchNormalization", "config": {"name": "batch_normalization_248", "trainable": false, "axis": 3, "momentum": 0.99, "epsilon": 0.001, "center": true, "scale": false, "beta_initializer": {"class_name": "Zeros", "config": {}}, "gamma_initializer": {"class_name": "Ones", "config": {}}, "moving_mean_initializer": {"class_name": "Zeros", "config": {}}, "moving_variance_initializer": {"class_name": "Ones", "config": {}}, "beta_regularizer": null, "gamma_regularizer": null, "beta_constraint": null, "gamma_constraint": null}, "inbound_nodes": [[["conv2d_249", 0, 0, {}]]]}, {"name": "activation_248", "class_name": "Activation", "config": {"name": "activation_248", "trainable": false, "activation": "relu"}, "inbound_nodes": [[["batch_normalization_248", 0, 0, {}]]]}, {"name": "conv2d_247", "class_name": "Conv2D", "config": {"name": "conv2d_247", "trainable": false, "filters": 48, "kernel_size": [1, 1], "strides": [1, 1], "padding": "same", "data_format": "channels_last", "dilation_rate": [1, 1], "activation": "linear", "use_bias": false, "kernel_initializer": {"class_name": "VarianceScaling", "config": {"scale": 1.0, "mode": "fan_avg", "distribution": "uniform", "seed": null}}, "bias_initializer": {"class_name": "Zeros", "config": {}}, "kernel_regularizer": null, "bias_regularizer": null, "activity_regularizer": null, "kernel_constraint": null, "bias_constraint": null}, "inbound_nodes": [[["mixed0", 0, 0, {}]]]}, {"name": "conv2d_250", "class_name": "Conv2D", "config": {"name": "conv2d_250", "trainable": false, "filters": 96, "kernel_size": [3, 3], "strides": [1, 1], "padding": "same", "data_format": "channels_last", "dilation_rate": [1, 1], "activation": "linear", "use_bias": false, "kernel_initializer": {"class_name": "VarianceScaling", "config": {"scale": 1.0, "mode": "fan_avg", "distribution": "uniform", "seed": null}}, "bias_initializer": {"class_name": "Zeros", "config": {}}, "kernel_regularizer": null, "bias_regularizer": null, "activity_regularizer": null, "kernel_constraint": null, "bias_constraint": null}, "inbound_nodes": [[["activation_248", 0, 0, {}]]]}, {"name": "batch_normalization_246", "class_name": "BatchNormalization", "config": {"name": "batch_normalization_246", "trainable": false, "axis": 3, "momentum": 0.99, "epsilon": 0.001, "center": true, "scale": false, "beta_initializer": {"class_name": "Zeros", "config": {}}, "gamma_initializer": {"class_name": "Ones", "config": {}}, "moving_mean_initializer": {"class_name": "Zeros", "config": {}}, "moving_variance_initializer": {"class_name": "Ones", "config": {}}, "beta_regularizer": null, "gamma_regularizer": null, "beta_constraint": null, "gamma_constraint": null}, "inbound_nodes": [[["conv2d_247", 0, 0, {}]]]}, {"name": "batch_normalization_249", "class_name": "BatchNormalization", "config": {"name": "batch_normalization_249", "trainable": false, "axis": 3, "momentum": 0.99, "epsilon": 0.001, "center": true, "scale": false, "beta_initializer": {"class_name": "Zeros", "config": {}}, "gamma_initializer": {"class_name": "Ones", "config": {}}, "moving_mean_initializer": {"class_name": "Zeros", "config": {}}, "moving_variance_initializer": {"class_name": "Ones", "config": {}}, "beta_regularizer": null, "gamma_regularizer": null, "beta_constraint": null, "gamma_constraint": null}, "inbound_nodes": [[["conv2d_250", 0, 0, {}]]]}, {"name": "activation_246", "class_name": "Activation", "config": {"name": "activation_246", "trainable": false, "activation": "relu"}, "inbound_nodes": [[["batch_normalization_246", 0, 0, {}]]]}, {"name": "activation_249", "class_name": "Activation", "config": {"name": "activation_249", "trainable": false, "activation": "relu"}, "inbound_nodes": [[["batch_normalization_249", 0, 0, {}]]]}, {"name": "average_pooling2d_24", "class_name": "AveragePooling2D", "config": {"name": "average_pooling2d_24", "trainable": false, "pool_size": [3, 3], "padding": "same", "strides": [1, 1], "data_format": "channels_last"}, "inbound_nodes": [[["mixed0", 0, 0, {}]]]}, {"name": "conv2d_246", "class_name": "Conv2D", "config": {"name": "conv2d_246", "trainable": false, "filters": 64, "kernel_size": [1, 1], "strides": [1, 1], "padding": "same", "data_format": "channels_last", "dilation_rate": [1, 1], "activation": "linear", "use_bias": false, "kernel_initializer": {"class_name": "VarianceScaling", "config": {"scale": 1.0, "mode": "fan_avg", "distribution": "uniform", "seed": null}}, "bias_initializer": {"class_name": "Zeros", "config": {}}, "kernel_regularizer": null, "bias_regularizer": null, "activity_regularizer": null, "kernel_constraint": null, "bias_constraint": null}, "inbound_nodes": [[["mixed0", 0, 0, {}]]]}, {"name": "conv2d_248", "class_name": "Conv2D", "config": {"name": "conv2d_248", "trainable": false, "filters": 64, "kernel_size": [5, 5], "strides": [1, 1], "padding": "same", "data_format": "channels_last", "dilation_rate": [1, 1], "activation": "linear", "use_bias": false, "kernel_initializer": {"class_name": "VarianceScaling", "config": {"scale": 1.0, "mode": "fan_avg", "distribution": "uniform", "seed": null}}, "bias_initializer": {"class_name": "Zeros", "config": {}}, "kernel_regularizer": null, "bias_regularizer": null, "activity_regularizer": null, "kernel_constraint": null, "bias_constraint": null}, "inbound_nodes": [[["activation_246", 0, 0, {}]]]}, {"name": "conv2d_251", "class_name": "Conv2D", "config": {"name": "conv2d_251", "trainable": false, "filters": 96, "kernel_size": [3, 3], "strides": [1, 1], "padding": "same", "data_format": "channels_last", "dilation_rate": [1, 1], "activation": "linear", "use_bias": false, "kernel_initializer": {"class_name": "VarianceScaling", "config": {"scale": 1.0, "mode": "fan_avg", "distribution": "uniform", "seed": null}}, "bias_initializer": {"class_name": "Zeros", "config": {}}, "kernel_regularizer": null, "bias_regularizer": null, "activity_regularizer": null, "kernel_constraint": null, "bias_constraint": null}, "inbound_nodes": [[["activation_249", 0, 0, {}]]]}, {"name": "conv2d_252", "class_name": "Conv2D", "config": {"name": "conv2d_252", "trainable": false, "filters": 64, "kernel_size": [1, 1], "strides": [1, 1], "padding": "same", "data_format": "channels_last", "dilation_rate": [1, 1], "activation": "linear", "use_bias": false, "kernel_initializer": {"class_name": "VarianceScaling", "config": {"scale": 1.0, "mode": "fan_avg", "distribution": "uniform", "seed": null}}, "bias_initializer": {"class_name": "Zeros", "config": {}}, "kernel_regularizer": null, "bias_regularizer": null, "activity_regularizer": null, "kernel_constraint": null, "bias_constraint": null}, "inbound_nodes": [[["average_pooling2d_24", 0, 0, {}]]]}, {"name": "batch_normalization_245", "class_name": "BatchNormalization", "config": {"name": "batch_normalization_245", "trainable": false, "axis": 3, "momentum": 0.99, "epsilon": 0.001, "center": true, "scale": false, "beta_initializer": {"class_name": "Zeros", "config": {}}, "gamma_initializer": {"class_name": "Ones", "config": {}}, "moving_mean_initializer": {"class_name": "Zeros", "config": {}}, "moving_variance_initializer": {"class_name": "Ones", "config": {}}, "beta_regularizer": null, "gamma_regularizer": null, "beta_constraint": null, "gamma_constraint": null}, "inbound_nodes": [[["conv2d_246", 0, 0, {}]]]}, {"name": "batch_normalization_247", "class_name": "BatchNormalization", "config": {"name": "batch_normalization_247", "trainable": false, "axis": 3, "momentum": 0.99, "epsilon": 0.001, "center": true, "scale": false, "beta_initializer": {"class_name": "Zeros", "config": {}}, "gamma_initializer": {"class_name": "Ones", "config": {}}, "moving_mean_initializer": {"class_name": "Zeros", "config": {}}, "moving_variance_initializer": {"class_name": "Ones", "config": {}}, "beta_regularizer": null, "gamma_regularizer": null, "beta_constraint": null, "gamma_constraint": null}, "inbound_nodes": [[["conv2d_248", 0, 0, {}]]]}, {"name": "batch_normalization_250", "class_name": "BatchNormalization", "config": {"name": "batch_normalization_250", "trainable": false, "axis": 3, "momentum": 0.99, "epsilon": 0.001, "center": true, "scale": false, "beta_initializer": {"class_name": "Zeros", "config": {}}, "gamma_initializer": {"class_name": "Ones", "config": {}}, "moving_mean_initializer": {"class_name": "Zeros", "config": {}}, "moving_variance_initializer": {"class_name": "Ones", "config": {}}, "beta_regularizer": null, "gamma_regularizer": null, "beta_constraint": null, "gamma_constraint": null}, "inbound_nodes": [[["conv2d_251", 0, 0, {}]]]}, {"name": "batch_normalization_251", "class_name": "BatchNormalization", "config": {"name": "batch_normalization_251", "trainable": false, "axis": 3, "momentum": 0.99, "epsilon": 0.001, "center": true, "scale": false, "beta_initializer": {"class_name": "Zeros", "config": {}}, "gamma_initializer": {"class_name": "Ones", "config": {}}, "moving_mean_initializer": {"class_name": "Zeros", "config": {}}, "moving_variance_initializer": {"class_name": "Ones", "config": {}}, "beta_regularizer": null, "gamma_regularizer": null, "beta_constraint": null, "gamma_constraint": null}, "inbound_nodes": [[["conv2d_252", 0, 0, {}]]]}, {"name": "activation_245", "class_name": "Activation", "config": {"name": "activation_245", "trainable": false, "activation": "relu"}, "inbound_nodes": [[["batch_normalization_245", 0, 0, {}]]]}, {"name": "activation_247", "class_name": "Activation", "config": {"name": "activation_247", "trainable": false, "activation": "relu"}, "inbound_nodes": [[["batch_normalization_247", 0, 0, {}]]]}, {"name": "activation_250", "class_name": "Activation", "config": {"name": "activation_250", "trainable": false, "activation": "relu"}, "inbound_nodes": [[["batch_normalization_250", 0, 0, {}]]]}, {"name": "activation_251", "class_name": "Activation", "config": {"name": "activation_251", "trainable": false, "activation": "relu"}, "inbound_nodes": [[["batch_normalization_251", 0, 0, {}]]]}, {"name": "mixed1", "class_name": "Concatenate", "config": {"name": "mixed1", "trainable": false, "axis": 3}, "inbound_nodes": [[["activation_245", 0, 0, {}], ["activation_247", 0, 0, {}], ["activation_250", 0, 0, {}], ["activation_251", 0, 0, {}]]]}, {"name": "conv2d_256", "class_name": "Conv2D", "config": {"name": "conv2d_256", "trainable": false, "filters": 64, "kernel_size": [1, 1], "strides": [1, 1], "padding": "same", "data_format": "channels_last", "dilation_rate": [1, 1], "activation": "linear", "use_bias": false, "kernel_initializer": {"class_name": "VarianceScaling", "config": {"scale": 1.0, "mode": "fan_avg", "distribution": "uniform", "seed": null}}, "bias_initializer": {"class_name": "Zeros", "config": {}}, "kernel_regularizer": null, "bias_regularizer": null, "activity_regularizer": null, "kernel_constraint": null, "bias_constraint": null}, "inbound_nodes": [[["mixed1", 0, 0, {}]]]}, {"name": "batch_normalization_255", "class_name": "BatchNormalization", "config": {"name": "batch_normalization_255", "trainable": false, "axis": 3, "momentum": 0.99, "epsilon": 0.001, "center": true, "scale": false, "beta_initializer": {"class_name": "Zeros", "config": {}}, "gamma_initializer": {"class_name": "Ones", "config": {}}, "moving_mean_initializer": {"class_name": "Zeros", "config": {}}, "moving_variance_initializer": {"class_name": "Ones", "config": {}}, "beta_regularizer": null, "gamma_regularizer": null, "beta_constraint": null, "gamma_constraint": null}, "inbound_nodes": [[["conv2d_256", 0, 0, {}]]]}, {"name": "activation_255", "class_name": "Activation", "config": {"name": "activation_255", "trainable": false, "activation": "relu"}, "inbound_nodes": [[["batch_normalization_255", 0, 0, {}]]]}, {"name": "conv2d_254", "class_name": "Conv2D", "config": {"name": "conv2d_254", "trainable": false, "filters": 48, "kernel_size": [1, 1], "strides": [1, 1], "padding": "same", "data_format": "channels_last", "dilation_rate": [1, 1], "activation": "linear", "use_bias": false, "kernel_initializer": {"class_name": "VarianceScaling", "config": {"scale": 1.0, "mode": "fan_avg", "distribution": "uniform", "seed": null}}, "bias_initializer": {"class_name": "Zeros", "config": {}}, "kernel_regularizer": null, "bias_regularizer": null, "activity_regularizer": null, "kernel_constraint": null, "bias_constraint": null}, "inbound_nodes": [[["mixed1", 0, 0, {}]]]}, {"name": "conv2d_257", "class_name": "Conv2D", "config": {"name": "conv2d_257", "trainable": false, "filters": 96, "kernel_size": [3, 3], "strides": [1, 1], "padding": "same", "data_format": "channels_last", "dilation_rate": [1, 1], "activation": "linear", "use_bias": false, "kernel_initializer": {"class_name": "VarianceScaling", "config": {"scale": 1.0, "mode": "fan_avg", "distribution": "uniform", "seed": null}}, "bias_initializer": {"class_name": "Zeros", "config": {}}, "kernel_regularizer": null, "bias_regularizer": null, "activity_regularizer": null, "kernel_constraint": null, "bias_constraint": null}, "inbound_nodes": [[["activation_255", 0, 0, {}]]]}, {"name": "batch_normalization_253", "class_name": "BatchNormalization", "config": {"name": "batch_normalization_253", "trainable": false, "axis": 3, "momentum": 0.99, "epsilon": 0.001, "center": true, "scale": false, "beta_initializer": {"class_name": "Zeros", "config": {}}, "gamma_initializer": {"class_name": "Ones", "config": {}}, "moving_mean_initializer": {"class_name": "Zeros", "config": {}}, "moving_variance_initializer": {"class_name": "Ones", "config": {}}, "beta_regularizer": null, "gamma_regularizer": null, "beta_constraint": null, "gamma_constraint": null}, "inbound_nodes": [[["conv2d_254", 0, 0, {}]]]}, {"name": "batch_normalization_256", "class_name": "BatchNormalization", "config": {"name": "batch_normalization_256", "trainable": false, "axis": 3, "momentum": 0.99, "epsilon": 0.001, "center": true, "scale": false, "beta_initializer": {"class_name": "Zeros", "config": {}}, "gamma_initializer": {"class_name": "Ones", "config": {}}, "moving_mean_initializer": {"class_name": "Zeros", "config": {}}, "moving_variance_initializer": {"class_name": "Ones", "config": {}}, "beta_regularizer": null, "gamma_regularizer": null, "beta_constraint": null, "gamma_constraint": null}, "inbound_nodes": [[["conv2d_257", 0, 0, {}]]]}, {"name": "activation_253", "class_name": "Activation", "config": {"name": "activation_253", "trainable": false, "activation": "relu"}, "inbound_nodes": [[["batch_normalization_253", 0, 0, {}]]]}, {"name": "activation_256", "class_name": "Activation", "config": {"name": "activation_256", "trainable": false, "activation": "relu"}, "inbound_nodes": [[["batch_normalization_256", 0, 0, {}]]]}, {"name": "average_pooling2d_25", "class_name": "AveragePooling2D", "config": {"name": "average_pooling2d_25", "trainable": false, "pool_size": [3, 3], "padding": "same", "strides": [1, 1], "data_format": "channels_last"}, "inbound_nodes": [[["mixed1", 0, 0, {}]]]}, {"name": "conv2d_253", "class_name": "Conv2D", "config": {"name": "conv2d_253", "trainable": false, "filters": 64, "kernel_size": [1, 1], "strides": [1, 1], "padding": "same", "data_format": "channels_last", "dilation_rate": [1, 1], "activation": "linear", "use_bias": false, "kernel_initializer": {"class_name": "VarianceScaling", "config": {"scale": 1.0, "mode": "fan_avg", "distribution": "uniform", "seed": null}}, "bias_initializer": {"class_name": "Zeros", "config": {}}, "kernel_regularizer": null, "bias_regularizer": null, "activity_regularizer": null, "kernel_constraint": null, "bias_constraint": null}, "inbound_nodes": [[["mixed1", 0, 0, {}]]]}, {"name": "conv2d_255", "class_name": "Conv2D", "config": {"name": "conv2d_255", "trainable": false, "filters": 64, "kernel_size": [5, 5], "strides": [1, 1], "padding": "same", "data_format": "channels_last", "dilation_rate": [1, 1], "activation": "linear", "use_bias": false, "kernel_initializer": {"class_name": "VarianceScaling", "config": {"scale": 1.0, "mode": "fan_avg", "distribution": "uniform", "seed": null}}, "bias_initializer": {"class_name": "Zeros", "config": {}}, "kernel_regularizer": null, "bias_regularizer": null, "activity_regularizer": null, "kernel_constraint": null, "bias_constraint": null}, "inbound_nodes": [[["activation_253", 0, 0, {}]]]}, {"name": "conv2d_258", "class_name": "Conv2D", "config": {"name": "conv2d_258", "trainable": false, "filters": 96, "kernel_size": [3, 3], "strides": [1, 1], "padding": "same", "data_format": "channels_last", "dilation_rate": [1, 1], "activation": "linear", "use_bias": false, "kernel_initializer": {"class_name": "VarianceScaling", "config": {"scale": 1.0, "mode": "fan_avg", "distribution": "uniform", "seed": null}}, "bias_initializer": {"class_name": "Zeros", "config": {}}, "kernel_regularizer": null, "bias_regularizer": null, "activity_regularizer": null, "kernel_constraint": null, "bias_constraint": null}, "inbound_nodes": [[["activation_256", 0, 0, {}]]]}, {"name": "conv2d_259", "class_name": "Conv2D", "config": {"name": "conv2d_259", "trainable": false, "filters": 64, "kernel_size": [1, 1], "strides": [1, 1], "padding": "same", "data_format": "channels_last", "dilation_rate": [1, 1], "activation": "linear", "use_bias": false, "kernel_initializer": {"class_name": "VarianceScaling", "config": {"scale": 1.0, "mode": "fan_avg", "distribution": "uniform", "seed": null}}, "bias_initializer": {"class_name": "Zeros", "config": {}}, "kernel_regularizer": null, "bias_regularizer": null, "activity_regularizer": null, "kernel_constraint": null, "bias_constraint": null}, "inbound_nodes": [[["average_pooling2d_25", 0, 0, {}]]]}, {"name": "batch_normalization_252", "class_name": "BatchNormalization", "config": {"name": "batch_normalization_252", "trainable": false, "axis": 3, "momentum": 0.99, "epsilon": 0.001, "center": true, "scale": false, "beta_initializer": {"class_name": "Zeros", "config": {}}, "gamma_initializer": {"class_name": "Ones", "config": {}}, "moving_mean_initializer": {"class_name": "Zeros", "config": {}}, "moving_variance_initializer": {"class_name": "Ones", "config": {}}, "beta_regularizer": null, "gamma_regularizer": null, "beta_constraint": null, "gamma_constraint": null}, "inbound_nodes": [[["conv2d_253", 0, 0, {}]]]}, {"name": "batch_normalization_254", "class_name": "BatchNormalization", "config": {"name": "batch_normalization_254", "trainable": false, "axis": 3, "momentum": 0.99, "epsilon": 0.001, "center": true, "scale": false, "beta_initializer": {"class_name": "Zeros", "config": {}}, "gamma_initializer": {"class_name": "Ones", "config": {}}, "moving_mean_initializer": {"class_name": "Zeros", "config": {}}, "moving_variance_initializer": {"class_name": "Ones", "config": {}}, "beta_regularizer": null, "gamma_regularizer": null, "beta_constraint": null, "gamma_constraint": null}, "inbound_nodes": [[["conv2d_255", 0, 0, {}]]]}, {"name": "batch_normalization_257", "class_name": "BatchNormalization", "config": {"name": "batch_normalization_257", "trainable": false, "axis": 3, "momentum": 0.99, "epsilon": 0.001, "center": true, "scale": false, "beta_initializer": {"class_name": "Zeros", "config": {}}, "gamma_initializer": {"class_name": "Ones", "config": {}}, "moving_mean_initializer": {"class_name": "Zeros", "config": {}}, "moving_variance_initializer": {"class_name": "Ones", "config": {}}, "beta_regularizer": null, "gamma_regularizer": null, "beta_constraint": null, "gamma_constraint": null}, "inbound_nodes": [[["conv2d_258", 0, 0, {}]]]}, {"name": "batch_normalization_258", "class_name": "BatchNormalization", "config": {"name": "batch_normalization_258", "trainable": false, "axis": 3, "momentum": 0.99, "epsilon": 0.001, "center": true, "scale": false, "beta_initializer": {"class_name": "Zeros", "config": {}}, "gamma_initializer": {"class_name": "Ones", "config": {}}, "moving_mean_initializer": {"class_name": "Zeros", "config": {}}, "moving_variance_initializer": {"class_name": "Ones", "config": {}}, "beta_regularizer": null, "gamma_regularizer": null, "beta_constraint": null, "gamma_constraint": null}, "inbound_nodes": [[["conv2d_259", 0, 0, {}]]]}, {"name": "activation_252", "class_name": "Activation", "config": {"name": "activation_252", "trainable": false, "activation": "relu"}, "inbound_nodes": [[["batch_normalization_252", 0, 0, {}]]]}, {"name": "activation_254", "class_name": "Activation", "config": {"name": "activation_254", "trainable": false, "activation": "relu"}, "inbound_nodes": [[["batch_normalization_254", 0, 0, {}]]]}, {"name": "activation_257", "class_name": "Activation", "config": {"name": "activation_257", "trainable": false, "activation": "relu"}, "inbound_nodes": [[["batch_normalization_257", 0, 0, {}]]]}, {"name": "activation_258", "class_name": "Activation", "config": {"name": "activation_258", "trainable": false, "activation": "relu"}, "inbound_nodes": [[["batch_normalization_258", 0, 0, {}]]]}, {"name": "mixed2", "class_name": "Concatenate", "config": {"name": "mixed2", "trainable": false, "axis": 3}, "inbound_nodes": [[["activation_252", 0, 0, {}], ["activation_254", 0, 0, {}], ["activation_257", 0, 0, {}], ["activation_258", 0, 0, {}]]]}, {"name": "conv2d_261", "class_name": "Conv2D", "config": {"name": "conv2d_261", "trainable": false, "filters": 64, "kernel_size": [1, 1], "strides": [1, 1], "padding": "same", "data_format": "channels_last", "dilation_rate": [1, 1], "activation": "linear", "use_bias": false, "kernel_initializer": {"class_name": "VarianceScaling", "config": {"scale": 1.0, "mode": "fan_avg", "distribution": "uniform", "seed": null}}, "bias_initializer": {"class_name": "Zeros", "config": {}}, "kernel_regularizer": null, "bias_regularizer": null, "activity_regularizer": null, "kernel_constraint": null, "bias_constraint": null}, "inbound_nodes": [[["mixed2", 0, 0, {}]]]}, {"name": "batch_normalization_260", "class_name": "BatchNormalization", "config": {"name": "batch_normalization_260", "trainable": false, "axis": 3, "momentum": 0.99, "epsilon": 0.001, "center": true, "scale": false, "beta_initializer": {"class_name": "Zeros", "config": {}}, "gamma_initializer": {"class_name": "Ones", "config": {}}, "moving_mean_initializer": {"class_name": "Zeros", "config": {}}, "moving_variance_initializer": {"class_name": "Ones", "config": {}}, "beta_regularizer": null, "gamma_regularizer": null, "beta_constraint": null, "gamma_constraint": null}, "inbound_nodes": [[["conv2d_261", 0, 0, {}]]]}, {"name": "activation_260", "class_name": "Activation", "config": {"name": "activation_260", "trainable": false, "activation": "relu"}, "inbound_nodes": [[["batch_normalization_260", 0, 0, {}]]]}, {"name": "conv2d_262", "class_name": "Conv2D", "config": {"name": "conv2d_262", "trainable": false, "filters": 96, "kernel_size": [3, 3], "strides": [1, 1], "padding": "same", "data_format": "channels_last", "dilation_rate": [1, 1], "activation": "linear", "use_bias": false, "kernel_initializer": {"class_name": "VarianceScaling", "config": {"scale": 1.0, "mode": "fan_avg", "distribution": "uniform", "seed": null}}, "bias_initializer": {"class_name": "Zeros", "config": {}}, "kernel_regularizer": null, "bias_regularizer": null, "activity_regularizer": null, "kernel_constraint": null, "bias_constraint": null}, "inbound_nodes": [[["activation_260", 0, 0, {}]]]}, {"name": "batch_normalization_261", "class_name": "BatchNormalization", "config": {"name": "batch_normalization_261", "trainable": false, "axis": 3, "momentum": 0.99, "epsilon": 0.001, "center": true, "scale": false, "beta_initializer": {"class_name": "Zeros", "config": {}}, "gamma_initializer": {"class_name": "Ones", "config": {}}, "moving_mean_initializer": {"class_name": "Zeros", "config": {}}, "moving_variance_initializer": {"class_name": "Ones", "config": {}}, "beta_regularizer": null, "gamma_regularizer": null, "beta_constraint": null, "gamma_constraint": null}, "inbound_nodes": [[["conv2d_262", 0, 0, {}]]]}, {"name": "activation_261", "class_name": "Activation", "config": {"name": "activation_261", "trainable": false, "activation": "relu"}, "inbound_nodes": [[["batch_normalization_261", 0, 0, {}]]]}, {"name": "conv2d_260", "class_name": "Conv2D", "config": {"name": "conv2d_260", "trainable": false, "filters": 384, "kernel_size": [3, 3], "strides": [2, 2], "padding": "valid", "data_format": "channels_last", "dilation_rate": [1, 1], "activation": "linear", "use_bias": false, "kernel_initializer": {"class_name": "VarianceScaling", "config": {"scale": 1.0, "mode": "fan_avg", "distribution": "uniform", "seed": null}}, "bias_initializer": {"class_name": "Zeros", "config": {}}, "kernel_regularizer": null, "bias_regularizer": null, "activity_regularizer": null, "kernel_constraint": null, "bias_constraint": null}, "inbound_nodes": [[["mixed2", 0, 0, {}]]]}, {"name": "conv2d_263", "class_name": "Conv2D", "config": {"name": "conv2d_263", "trainable": false, "filters": 96, "kernel_size": [3, 3], "strides": [2, 2], "padding": "valid", "data_format": "channels_last", "dilation_rate": [1, 1], "activation": "linear", "use_bias": false, "kernel_initializer": {"class_name": "VarianceScaling", "config": {"scale": 1.0, "mode": "fan_avg", "distribution": "uniform", "seed": null}}, "bias_initializer": {"class_name": "Zeros", "config": {}}, "kernel_regularizer": null, "bias_regularizer": null, "activity_regularizer": null, "kernel_constraint": null, "bias_constraint": null}, "inbound_nodes": [[["activation_261", 0, 0, {}]]]}, {"name": "batch_normalization_259", "class_name": "BatchNormalization", "config": {"name": "batch_normalization_259", "trainable": false, "axis": 3, "momentum": 0.99, "epsilon": 0.001, "center": true, "scale": false, "beta_initializer": {"class_name": "Zeros", "config": {}}, "gamma_initializer": {"class_name": "Ones", "config": {}}, "moving_mean_initializer": {"class_name": "Zeros", "config": {}}, "moving_variance_initializer": {"class_name": "Ones", "config": {}}, "beta_regularizer": null, "gamma_regularizer": null, "beta_constraint": null, "gamma_constraint": null}, "inbound_nodes": [[["conv2d_260", 0, 0, {}]]]}, {"name": "batch_normalization_262", "class_name": "BatchNormalization", "config": {"name": "batch_normalization_262", "trainable": false, "axis": 3, "momentum": 0.99, "epsilon": 0.001, "center": true, "scale": false, "beta_initializer": {"class_name": "Zeros", "config": {}}, "gamma_initializer": {"class_name": "Ones", "config": {}}, "moving_mean_initializer": {"class_name": "Zeros", "config": {}}, "moving_variance_initializer": {"class_name": "Ones", "config": {}}, "beta_regularizer": null, "gamma_regularizer": null, "beta_constraint": null, "gamma_constraint": null}, "inbound_nodes": [[["conv2d_263", 0, 0, {}]]]}, {"name": "activation_259", "class_name": "Activation", "config": {"name": "activation_259", "trainable": false, "activation": "relu"}, "inbound_nodes": [[["batch_normalization_259", 0, 0, {}]]]}, {"name": "activation_262", "class_name": "Activation", "config": {"name": "activation_262", "trainable": false, "activation": "relu"}, "inbound_nodes": [[["batch_normalization_262", 0, 0, {}]]]}, {"name": "max_pooling2d_14", "class_name": "MaxPooling2D", "config": {"name": "max_pooling2d_14", "trainable": false, "pool_size": [3, 3], "padding": "valid", "strides": [2, 2], "data_format": "channels_last"}, "inbound_nodes": [[["mixed2", 0, 0, {}]]]}, {"name": "mixed3", "class_name": "Concatenate", "config": {"name": "mixed3", "trainable": false, "axis": 3}, "inbound_nodes": [[["activation_259", 0, 0, {}], ["activation_262", 0, 0, {}], ["max_pooling2d_14", 0, 0, {}]]]}, {"name": "conv2d_268", "class_name": "Conv2D", "config": {"name": "conv2d_268", "trainable": false, "filters": 128, "kernel_size": [1, 1], "strides": [1, 1], "padding": "same", "data_format": "channels_last", "dilation_rate": [1, 1], "activation": "linear", "use_bias": false, "kernel_initializer": {"class_name": "VarianceScaling", "config": {"scale": 1.0, "mode": "fan_avg", "distribution": "uniform", "seed": null}}, "bias_initializer": {"class_name": "Zeros", "config": {}}, "kernel_regularizer": null, "bias_regularizer": null, "activity_regularizer": null, "kernel_constraint": null, "bias_constraint": null}, "inbound_nodes": [[["mixed3", 0, 0, {}]]]}, {"name": "batch_normalization_267", "class_name": "BatchNormalization", "config": {"name": "batch_normalization_267", "trainable": false, "axis": 3, "momentum": 0.99, "epsilon": 0.001, "center": true, "scale": false, "beta_initializer": {"class_name": "Zeros", "config": {}}, "gamma_initializer": {"class_name": "Ones", "config": {}}, "moving_mean_initializer": {"class_name": "Zeros", "config": {}}, "moving_variance_initializer": {"class_name": "Ones", "config": {}}, "beta_regularizer": null, "gamma_regularizer": null, "beta_constraint": null, "gamma_constraint": null}, "inbound_nodes": [[["conv2d_268", 0, 0, {}]]]}, {"name": "activation_267", "class_name": "Activation", "config": {"name": "activation_267", "trainable": false, "activation": "relu"}, "inbound_nodes": [[["batch_normalization_267", 0, 0, {}]]]}, {"name": "conv2d_269", "class_name": "Conv2D", "config": {"name": "conv2d_269", "trainable": false, "filters": 128, "kernel_size": [7, 1], "strides": [1, 1], "padding": "same", "data_format": "channels_last", "dilation_rate": [1, 1], "activation": "linear", "use_bias": false, "kernel_initializer": {"class_name": "VarianceScaling", "config": {"scale": 1.0, "mode": "fan_avg", "distribution": "uniform", "seed": null}}, "bias_initializer": {"class_name": "Zeros", "config": {}}, "kernel_regularizer": null, "bias_regularizer": null, "activity_regularizer": null, "kernel_constraint": null, "bias_constraint": null}, "inbound_nodes": [[["activation_267", 0, 0, {}]]]}, {"name": "batch_normalization_268", "class_name": "BatchNormalization", "config": {"name": "batch_normalization_268", "trainable": false, "axis": 3, "momentum": 0.99, "epsilon": 0.001, "center": true, "scale": false, "beta_initializer": {"class_name": "Zeros", "config": {}}, "gamma_initializer": {"class_name": "Ones", "config": {}}, "moving_mean_initializer": {"class_name": "Zeros", "config": {}}, "moving_variance_initializer": {"class_name": "Ones", "config": {}}, "beta_regularizer": null, "gamma_regularizer": null, "beta_constraint": null, "gamma_constraint": null}, "inbound_nodes": [[["conv2d_269", 0, 0, {}]]]}, {"name": "activation_268", "class_name": "Activation", "config": {"name": "activation_268", "trainable": false, "activation": "relu"}, "inbound_nodes": [[["batch_normalization_268", 0, 0, {}]]]}, {"name": "conv2d_265", "class_name": "Conv2D", "config": {"name": "conv2d_265", "trainable": false, "filters": 128, "kernel_size": [1, 1], "strides": [1, 1], "padding": "same", "data_format": "channels_last", "dilation_rate": [1, 1], "activation": "linear", "use_bias": false, "kernel_initializer": {"class_name": "VarianceScaling", "config": {"scale": 1.0, "mode": "fan_avg", "distribution": "uniform", "seed": null}}, "bias_initializer": {"class_name": "Zeros", "config": {}}, "kernel_regularizer": null, "bias_regularizer": null, "activity_regularizer": null, "kernel_constraint": null, "bias_constraint": null}, "inbound_nodes": [[["mixed3", 0, 0, {}]]]}, {"name": "conv2d_270", "class_name": "Conv2D", "config": {"name": "conv2d_270", "trainable": false, "filters": 128, "kernel_size": [1, 7], "strides": [1, 1], "padding": "same", "data_format": "channels_last", "dilation_rate": [1, 1], "activation": "linear", "use_bias": false, "kernel_initializer": {"class_name": "VarianceScaling", "config": {"scale": 1.0, "mode": "fan_avg", "distribution": "uniform", "seed": null}}, "bias_initializer": {"class_name": "Zeros", "config": {}}, "kernel_regularizer": null, "bias_regularizer": null, "activity_regularizer": null, "kernel_constraint": null, "bias_constraint": null}, "inbound_nodes": [[["activation_268", 0, 0, {}]]]}, {"name": "batch_normalization_264", "class_name": "BatchNormalization", "config": {"name": "batch_normalization_264", "trainable": false, "axis": 3, "momentum": 0.99, "epsilon": 0.001, "center": true, "scale": false, "beta_initializer": {"class_name": "Zeros", "config": {}}, "gamma_initializer": {"class_name": "Ones", "config": {}}, "moving_mean_initializer": {"class_name": "Zeros", "config": {}}, "moving_variance_initializer": {"class_name": "Ones", "config": {}}, "beta_regularizer": null, "gamma_regularizer": null, "beta_constraint": null, "gamma_constraint": null}, "inbound_nodes": [[["conv2d_265", 0, 0, {}]]]}, {"name": "batch_normalization_269", "class_name": "BatchNormalization", "config": {"name": "batch_normalization_269", "trainable": false, "axis": 3, "momentum": 0.99, "epsilon": 0.001, "center": true, "scale": false, "beta_initializer": {"class_name": "Zeros", "config": {}}, "gamma_initializer": {"class_name": "Ones", "config": {}}, "moving_mean_initializer": {"class_name": "Zeros", "config": {}}, "moving_variance_initializer": {"class_name": "Ones", "config": {}}, "beta_regularizer": null, "gamma_regularizer": null, "beta_constraint": null, "gamma_constraint": null}, "inbound_nodes": [[["conv2d_270", 0, 0, {}]]]}, {"name": "activation_264", "class_name": "Activation", "config": {"name": "activation_264", "trainable": false, "activation": "relu"}, "inbound_nodes": [[["batch_normalization_264", 0, 0, {}]]]}, {"name": "activation_269", "class_name": "Activation", "config": {"name": "activation_269", "trainable": false, "activation": "relu"}, "inbound_nodes": [[["batch_normalization_269", 0, 0, {}]]]}, {"name": "conv2d_266", "class_name": "Conv2D", "config": {"name": "conv2d_266", "trainable": false, "filters": 128, "kernel_size": [1, 7], "strides": [1, 1], "padding": "same", "data_format": "channels_last", "dilation_rate": [1, 1], "activation": "linear", "use_bias": false, "kernel_initializer": {"class_name": "VarianceScaling", "config": {"scale": 1.0, "mode": "fan_avg", "distribution": "uniform", "seed": null}}, "bias_initializer": {"class_name": "Zeros", "config": {}}, "kernel_regularizer": null, "bias_regularizer": null, "activity_regularizer": null, "kernel_constraint": null, "bias_constraint": null}, "inbound_nodes": [[["activation_264", 0, 0, {}]]]}, {"name": "conv2d_271", "class_name": "Conv2D", "config": {"name": "conv2d_271", "trainable": false, "filters": 128, "kernel_size": [7, 1], "strides": [1, 1], "padding": "same", "data_format": "channels_last", "dilation_rate": [1, 1], "activation": "linear", "use_bias": false, "kernel_initializer": {"class_name": "VarianceScaling", "config": {"scale": 1.0, "mode": "fan_avg", "distribution": "uniform", "seed": null}}, "bias_initializer": {"class_name": "Zeros", "config": {}}, "kernel_regularizer": null, "bias_regularizer": null, "activity_regularizer": null, "kernel_constraint": null, "bias_constraint": null}, "inbound_nodes": [[["activation_269", 0, 0, {}]]]}, {"name": "batch_normalization_265", "class_name": "BatchNormalization", "config": {"name": "batch_normalization_265", "trainable": false, "axis": 3, "momentum": 0.99, "epsilon": 0.001, "center": true, "scale": false, "beta_initializer": {"class_name": "Zeros", "config": {}}, "gamma_initializer": {"class_name": "Ones", "config": {}}, "moving_mean_initializer": {"class_name": "Zeros", "config": {}}, "moving_variance_initializer": {"class_name": "Ones", "config": {}}, "beta_regularizer": null, "gamma_regularizer": null, "beta_constraint": null, "gamma_constraint": null}, "inbound_nodes": [[["conv2d_266", 0, 0, {}]]]}, {"name": "batch_normalization_270", "class_name": "BatchNormalization", "config": {"name": "batch_normalization_270", "trainable": false, "axis": 3, "momentum": 0.99, "epsilon": 0.001, "center": true, "scale": false, "beta_initializer": {"class_name": "Zeros", "config": {}}, "gamma_initializer": {"class_name": "Ones", "config": {}}, "moving_mean_initializer": {"class_name": "Zeros", "config": {}}, "moving_variance_initializer": {"class_name": "Ones", "config": {}}, "beta_regularizer": null, "gamma_regularizer": null, "beta_constraint": null, "gamma_constraint": null}, "inbound_nodes": [[["conv2d_271", 0, 0, {}]]]}, {"name": "activation_265", "class_name": "Activation", "config": {"name": "activation_265", "trainable": false, "activation": "relu"}, "inbound_nodes": [[["batch_normalization_265", 0, 0, {}]]]}, {"name": "activation_270", "class_name": "Activation", "config": {"name": "activation_270", "trainable": false, "activation": "relu"}, "inbound_nodes": [[["batch_normalization_270", 0, 0, {}]]]}, {"name": "average_pooling2d_26", "class_name": "AveragePooling2D", "config": {"name": "average_pooling2d_26", "trainable": false, "pool_size": [3, 3], "padding": "same", "strides": [1, 1], "data_format": "channels_last"}, "inbound_nodes": [[["mixed3", 0, 0, {}]]]}, {"name": "conv2d_264", "class_name": "Conv2D", "config": {"name": "conv2d_264", "trainable": false, "filters": 192, "kernel_size": [1, 1], "strides": [1, 1], "padding": "same", "data_format": "channels_last", "dilation_rate": [1, 1], "activation": "linear", "use_bias": false, "kernel_initializer": {"class_name": "VarianceScaling", "config": {"scale": 1.0, "mode": "fan_avg", "distribution": "uniform", "seed": null}}, "bias_initializer": {"class_name": "Zeros", "config": {}}, "kernel_regularizer": null, "bias_regularizer": null, "activity_regularizer": null, "kernel_constraint": null, "bias_constraint": null}, "inbound_nodes": [[["mixed3", 0, 0, {}]]]}, {"name": "conv2d_267", "class_name": "Conv2D", "config": {"name": "conv2d_267", "trainable": false, "filters": 192, "kernel_size": [7, 1], "strides": [1, 1], "padding": "same", "data_format": "channels_last", "dilation_rate": [1, 1], "activation": "linear", "use_bias": false, "kernel_initializer": {"class_name": "VarianceScaling", "config": {"scale": 1.0, "mode": "fan_avg", "distribution": "uniform", "seed": null}}, "bias_initializer": {"class_name": "Zeros", "config": {}}, "kernel_regularizer": null, "bias_regularizer": null, "activity_regularizer": null, "kernel_constraint": null, "bias_constraint": null}, "inbound_nodes": [[["activation_265", 0, 0, {}]]]}, {"name": "conv2d_272", "class_name": "Conv2D", "config": {"name": "conv2d_272", "trainable": false, "filters": 192, "kernel_size": [1, 7], "strides": [1, 1], "padding": "same", "data_format": "channels_last", "dilation_rate": [1, 1], "activation": "linear", "use_bias": false, "kernel_initializer": {"class_name": "VarianceScaling", "config": {"scale": 1.0, "mode": "fan_avg", "distribution": "uniform", "seed": null}}, "bias_initializer": {"class_name": "Zeros", "config": {}}, "kernel_regularizer": null, "bias_regularizer": null, "activity_regularizer": null, "kernel_constraint": null, "bias_constraint": null}, "inbound_nodes": [[["activation_270", 0, 0, {}]]]}, {"name": "conv2d_273", "class_name": "Conv2D", "config": {"name": "conv2d_273", "trainable": false, "filters": 192, "kernel_size": [1, 1], "strides": [1, 1], "padding": "same", "data_format": "channels_last", "dilation_rate": [1, 1], "activation": "linear", "use_bias": false, "kernel_initializer": {"class_name": "VarianceScaling", "config": {"scale": 1.0, "mode": "fan_avg", "distribution": "uniform", "seed": null}}, "bias_initializer": {"class_name": "Zeros", "config": {}}, "kernel_regularizer": null, "bias_regularizer": null, "activity_regularizer": null, "kernel_constraint": null, "bias_constraint": null}, "inbound_nodes": [[["average_pooling2d_26", 0, 0, {}]]]}, {"name": "batch_normalization_263", "class_name": "BatchNormalization", "config": {"name": "batch_normalization_263", "trainable": false, "axis": 3, "momentum": 0.99, "epsilon": 0.001, "center": true, "scale": false, "beta_initializer": {"class_name": "Zeros", "config": {}}, "gamma_initializer": {"class_name": "Ones", "config": {}}, "moving_mean_initializer": {"class_name": "Zeros", "config": {}}, "moving_variance_initializer": {"class_name": "Ones", "config": {}}, "beta_regularizer": null, "gamma_regularizer": null, "beta_constraint": null, "gamma_constraint": null}, "inbound_nodes": [[["conv2d_264", 0, 0, {}]]]}, {"name": "batch_normalization_266", "class_name": "BatchNormalization", "config": {"name": "batch_normalization_266", "trainable": false, "axis": 3, "momentum": 0.99, "epsilon": 0.001, "center": true, "scale": false, "beta_initializer": {"class_name": "Zeros", "config": {}}, "gamma_initializer": {"class_name": "Ones", "config": {}}, "moving_mean_initializer": {"class_name": "Zeros", "config": {}}, "moving_variance_initializer": {"class_name": "Ones", "config": {}}, "beta_regularizer": null, "gamma_regularizer": null, "beta_constraint": null, "gamma_constraint": null}, "inbound_nodes": [[["conv2d_267", 0, 0, {}]]]}, {"name": "batch_normalization_271", "class_name": "BatchNormalization", "config": {"name": "batch_normalization_271", "trainable": false, "axis": 3, "momentum": 0.99, "epsilon": 0.001, "center": true, "scale": false, "beta_initializer": {"class_name": "Zeros", "config": {}}, "gamma_initializer": {"class_name": "Ones", "config": {}}, "moving_mean_initializer": {"class_name": "Zeros", "config": {}}, "moving_variance_initializer": {"class_name": "Ones", "config": {}}, "beta_regularizer": null, "gamma_regularizer": null, "beta_constraint": null, "gamma_constraint": null}, "inbound_nodes": [[["conv2d_272", 0, 0, {}]]]}, {"name": "batch_normalization_272", "class_name": "BatchNormalization", "config": {"name": "batch_normalization_272", "trainable": false, "axis": 3, "momentum": 0.99, "epsilon": 0.001, "center": true, "scale": false, "beta_initializer": {"class_name": "Zeros", "config": {}}, "gamma_initializer": {"class_name": "Ones", "config": {}}, "moving_mean_initializer": {"class_name": "Zeros", "config": {}}, "moving_variance_initializer": {"class_name": "Ones", "config": {}}, "beta_regularizer": null, "gamma_regularizer": null, "beta_constraint": null, "gamma_constraint": null}, "inbound_nodes": [[["conv2d_273", 0, 0, {}]]]}, {"name": "activation_263", "class_name": "Activation", "config": {"name": "activation_263", "trainable": false, "activation": "relu"}, "inbound_nodes": [[["batch_normalization_263", 0, 0, {}]]]}, {"name": "activation_266", "class_name": "Activation", "config": {"name": "activation_266", "trainable": false, "activation": "relu"}, "inbound_nodes": [[["batch_normalization_266", 0, 0, {}]]]}, {"name": "activation_271", "class_name": "Activation", "config": {"name": "activation_271", "trainable": false, "activation": "relu"}, "inbound_nodes": [[["batch_normalization_271", 0, 0, {}]]]}, {"name": "activation_272", "class_name": "Activation", "config": {"name": "activation_272", "trainable": false, "activation": "relu"}, "inbound_nodes": [[["batch_normalization_272", 0, 0, {}]]]}, {"name": "mixed4", "class_name": "Concatenate", "config": {"name": "mixed4", "trainable": false, "axis": 3}, "inbound_nodes": [[["activation_263", 0, 0, {}], ["activation_266", 0, 0, {}], ["activation_271", 0, 0, {}], ["activation_272", 0, 0, {}]]]}, {"name": "conv2d_278", "class_name": "Conv2D", "config": {"name": "conv2d_278", "trainable": false, "filters": 160, "kernel_size": [1, 1], "strides": [1, 1], "padding": "same", "data_format": "channels_last", "dilation_rate": [1, 1], "activation": "linear", "use_bias": false, "kernel_initializer": {"class_name": "VarianceScaling", "config": {"scale": 1.0, "mode": "fan_avg", "distribution": "uniform", "seed": null}}, "bias_initializer": {"class_name": "Zeros", "config": {}}, "kernel_regularizer": null, "bias_regularizer": null, "activity_regularizer": null, "kernel_constraint": null, "bias_constraint": null}, "inbound_nodes": [[["mixed4", 0, 0, {}]]]}, {"name": "batch_normalization_277", "class_name": "BatchNormalization", "config": {"name": "batch_normalization_277", "trainable": false, "axis": 3, "momentum": 0.99, "epsilon": 0.001, "center": true, "scale": false, "beta_initializer": {"class_name": "Zeros", "config": {}}, "gamma_initializer": {"class_name": "Ones", "config": {}}, "moving_mean_initializer": {"class_name": "Zeros", "config": {}}, "moving_variance_initializer": {"class_name": "Ones", "config": {}}, "beta_regularizer": null, "gamma_regularizer": null, "beta_constraint": null, "gamma_constraint": null}, "inbound_nodes": [[["conv2d_278", 0, 0, {}]]]}, {"name": "activation_277", "class_name": "Activation", "config": {"name": "activation_277", "trainable": false, "activation": "relu"}, "inbound_nodes": [[["batch_normalization_277", 0, 0, {}]]]}, {"name": "conv2d_279", "class_name": "Conv2D", "config": {"name": "conv2d_279", "trainable": false, "filters": 160, "kernel_size": [7, 1], "strides": [1, 1], "padding": "same", "data_format": "channels_last", "dilation_rate": [1, 1], "activation": "linear", "use_bias": false, "kernel_initializer": {"class_name": "VarianceScaling", "config": {"scale": 1.0, "mode": "fan_avg", "distribution": "uniform", "seed": null}}, "bias_initializer": {"class_name": "Zeros", "config": {}}, "kernel_regularizer": null, "bias_regularizer": null, "activity_regularizer": null, "kernel_constraint": null, "bias_constraint": null}, "inbound_nodes": [[["activation_277", 0, 0, {}]]]}, {"name": "batch_normalization_278", "class_name": "BatchNormalization", "config": {"name": "batch_normalization_278", "trainable": false, "axis": 3, "momentum": 0.99, "epsilon": 0.001, "center": true, "scale": false, "beta_initializer": {"class_name": "Zeros", "config": {}}, "gamma_initializer": {"class_name": "Ones", "config": {}}, "moving_mean_initializer": {"class_name": "Zeros", "config": {}}, "moving_variance_initializer": {"class_name": "Ones", "config": {}}, "beta_regularizer": null, "gamma_regularizer": null, "beta_constraint": null, "gamma_constraint": null}, "inbound_nodes": [[["conv2d_279", 0, 0, {}]]]}, {"name": "activation_278", "class_name": "Activation", "config": {"name": "activation_278", "trainable": false, "activation": "relu"}, "inbound_nodes": [[["batch_normalization_278", 0, 0, {}]]]}, {"name": "conv2d_275", "class_name": "Conv2D", "config": {"name": "conv2d_275", "trainable": false, "filters": 160, "kernel_size": [1, 1], "strides": [1, 1], "padding": "same", "data_format": "channels_last", "dilation_rate": [1, 1], "activation": "linear", "use_bias": false, "kernel_initializer": {"class_name": "VarianceScaling", "config": {"scale": 1.0, "mode": "fan_avg", "distribution": "uniform", "seed": null}}, "bias_initializer": {"class_name": "Zeros", "config": {}}, "kernel_regularizer": null, "bias_regularizer": null, "activity_regularizer": null, "kernel_constraint": null, "bias_constraint": null}, "inbound_nodes": [[["mixed4", 0, 0, {}]]]}, {"name": "conv2d_280", "class_name": "Conv2D", "config": {"name": "conv2d_280", "trainable": false, "filters": 160, "kernel_size": [1, 7], "strides": [1, 1], "padding": "same", "data_format": "channels_last", "dilation_rate": [1, 1], "activation": "linear", "use_bias": false, "kernel_initializer": {"class_name": "VarianceScaling", "config": {"scale": 1.0, "mode": "fan_avg", "distribution": "uniform", "seed": null}}, "bias_initializer": {"class_name": "Zeros", "config": {}}, "kernel_regularizer": null, "bias_regularizer": null, "activity_regularizer": null, "kernel_constraint": null, "bias_constraint": null}, "inbound_nodes": [[["activation_278", 0, 0, {}]]]}, {"name": "batch_normalization_274", "class_name": "BatchNormalization", "config": {"name": "batch_normalization_274", "trainable": false, "axis": 3, "momentum": 0.99, "epsilon": 0.001, "center": true, "scale": false, "beta_initializer": {"class_name": "Zeros", "config": {}}, "gamma_initializer": {"class_name": "Ones", "config": {}}, "moving_mean_initializer": {"class_name": "Zeros", "config": {}}, "moving_variance_initializer": {"class_name": "Ones", "config": {}}, "beta_regularizer": null, "gamma_regularizer": null, "beta_constraint": null, "gamma_constraint": null}, "inbound_nodes": [[["conv2d_275", 0, 0, {}]]]}, {"name": "batch_normalization_279", "class_name": "BatchNormalization", "config": {"name": "batch_normalization_279", "trainable": false, "axis": 3, "momentum": 0.99, "epsilon": 0.001, "center": true, "scale": false, "beta_initializer": {"class_name": "Zeros", "config": {}}, "gamma_initializer": {"class_name": "Ones", "config": {}}, "moving_mean_initializer": {"class_name": "Zeros", "config": {}}, "moving_variance_initializer": {"class_name": "Ones", "config": {}}, "beta_regularizer": null, "gamma_regularizer": null, "beta_constraint": null, "gamma_constraint": null}, "inbound_nodes": [[["conv2d_280", 0, 0, {}]]]}, {"name": "activation_274", "class_name": "Activation", "config": {"name": "activation_274", "trainable": false, "activation": "relu"}, "inbound_nodes": [[["batch_normalization_274", 0, 0, {}]]]}, {"name": "activation_279", "class_name": "Activation", "config": {"name": "activation_279", "trainable": false, "activation": "relu"}, "inbound_nodes": [[["batch_normalization_279", 0, 0, {}]]]}, {"name": "conv2d_276", "class_name": "Conv2D", "config": {"name": "conv2d_276", "trainable": false, "filters": 160, "kernel_size": [1, 7], "strides": [1, 1], "padding": "same", "data_format": "channels_last", "dilation_rate": [1, 1], "activation": "linear", "use_bias": false, "kernel_initializer": {"class_name": "VarianceScaling", "config": {"scale": 1.0, "mode": "fan_avg", "distribution": "uniform", "seed": null}}, "bias_initializer": {"class_name": "Zeros", "config": {}}, "kernel_regularizer": null, "bias_regularizer": null, "activity_regularizer": null, "kernel_constraint": null, "bias_constraint": null}, "inbound_nodes": [[["activation_274", 0, 0, {}]]]}, {"name": "conv2d_281", "class_name": "Conv2D", "config": {"name": "conv2d_281", "trainable": false, "filters": 160, "kernel_size": [7, 1], "strides": [1, 1], "padding": "same", "data_format": "channels_last", "dilation_rate": [1, 1], "activation": "linear", "use_bias": false, "kernel_initializer": {"class_name": "VarianceScaling", "config": {"scale": 1.0, "mode": "fan_avg", "distribution": "uniform", "seed": null}}, "bias_initializer": {"class_name": "Zeros", "config": {}}, "kernel_regularizer": null, "bias_regularizer": null, "activity_regularizer": null, "kernel_constraint": null, "bias_constraint": null}, "inbound_nodes": [[["activation_279", 0, 0, {}]]]}, {"name": "batch_normalization_275", "class_name": "BatchNormalization", "config": {"name": "batch_normalization_275", "trainable": false, "axis": 3, "momentum": 0.99, "epsilon": 0.001, "center": true, "scale": false, "beta_initializer": {"class_name": "Zeros", "config": {}}, "gamma_initializer": {"class_name": "Ones", "config": {}}, "moving_mean_initializer": {"class_name": "Zeros", "config": {}}, "moving_variance_initializer": {"class_name": "Ones", "config": {}}, "beta_regularizer": null, "gamma_regularizer": null, "beta_constraint": null, "gamma_constraint": null}, "inbound_nodes": [[["conv2d_276", 0, 0, {}]]]}, {"name": "batch_normalization_280", "class_name": "BatchNormalization", "config": {"name": "batch_normalization_280", "trainable": false, "axis": 3, "momentum": 0.99, "epsilon": 0.001, "center": true, "scale": false, "beta_initializer": {"class_name": "Zeros", "config": {}}, "gamma_initializer": {"class_name": "Ones", "config": {}}, "moving_mean_initializer": {"class_name": "Zeros", "config": {}}, "moving_variance_initializer": {"class_name": "Ones", "config": {}}, "beta_regularizer": null, "gamma_regularizer": null, "beta_constraint": null, "gamma_constraint": null}, "inbound_nodes": [[["conv2d_281", 0, 0, {}]]]}, {"name": "activation_275", "class_name": "Activation", "config": {"name": "activation_275", "trainable": false, "activation": "relu"}, "inbound_nodes": [[["batch_normalization_275", 0, 0, {}]]]}, {"name": "activation_280", "class_name": "Activation", "config": {"name": "activation_280", "trainable": false, "activation": "relu"}, "inbound_nodes": [[["batch_normalization_280", 0, 0, {}]]]}, {"name": "average_pooling2d_27", "class_name": "AveragePooling2D", "config": {"name": "average_pooling2d_27", "trainable": false, "pool_size": [3, 3], "padding": "same", "strides": [1, 1], "data_format": "channels_last"}, "inbound_nodes": [[["mixed4", 0, 0, {}]]]}, {"name": "conv2d_274", "class_name": "Conv2D", "config": {"name": "conv2d_274", "trainable": false, "filters": 192, "kernel_size": [1, 1], "strides": [1, 1], "padding": "same", "data_format": "channels_last", "dilation_rate": [1, 1], "activation": "linear", "use_bias": false, "kernel_initializer": {"class_name": "VarianceScaling", "config": {"scale": 1.0, "mode": "fan_avg", "distribution": "uniform", "seed": null}}, "bias_initializer": {"class_name": "Zeros", "config": {}}, "kernel_regularizer": null, "bias_regularizer": null, "activity_regularizer": null, "kernel_constraint": null, "bias_constraint": null}, "inbound_nodes": [[["mixed4", 0, 0, {}]]]}, {"name": "conv2d_277", "class_name": "Conv2D", "config": {"name": "conv2d_277", "trainable": false, "filters": 192, "kernel_size": [7, 1], "strides": [1, 1], "padding": "same", "data_format": "channels_last", "dilation_rate": [1, 1], "activation": "linear", "use_bias": false, "kernel_initializer": {"class_name": "VarianceScaling", "config": {"scale": 1.0, "mode": "fan_avg", "distribution": "uniform", "seed": null}}, "bias_initializer": {"class_name": "Zeros", "config": {}}, "kernel_regularizer": null, "bias_regularizer": null, "activity_regularizer": null, "kernel_constraint": null, "bias_constraint": null}, "inbound_nodes": [[["activation_275", 0, 0, {}]]]}, {"name": "conv2d_282", "class_name": "Conv2D", "config": {"name": "conv2d_282", "trainable": false, "filters": 192, "kernel_size": [1, 7], "strides": [1, 1], "padding": "same", "data_format": "channels_last", "dilation_rate": [1, 1], "activation": "linear", "use_bias": false, "kernel_initializer": {"class_name": "VarianceScaling", "config": {"scale": 1.0, "mode": "fan_avg", "distribution": "uniform", "seed": null}}, "bias_initializer": {"class_name": "Zeros", "config": {}}, "kernel_regularizer": null, "bias_regularizer": null, "activity_regularizer": null, "kernel_constraint": null, "bias_constraint": null}, "inbound_nodes": [[["activation_280", 0, 0, {}]]]}, {"name": "conv2d_283", "class_name": "Conv2D", "config": {"name": "conv2d_283", "trainable": false, "filters": 192, "kernel_size": [1, 1], "strides": [1, 1], "padding": "same", "data_format": "channels_last", "dilation_rate": [1, 1], "activation": "linear", "use_bias": false, "kernel_initializer": {"class_name": "VarianceScaling", "config": {"scale": 1.0, "mode": "fan_avg", "distribution": "uniform", "seed": null}}, "bias_initializer": {"class_name": "Zeros", "config": {}}, "kernel_regularizer": null, "bias_regularizer": null, "activity_regularizer": null, "kernel_constraint": null, "bias_constraint": null}, "inbound_nodes": [[["average_pooling2d_27", 0, 0, {}]]]}, {"name": "batch_normalization_273", "class_name": "BatchNormalization", "config": {"name": "batch_normalization_273", "trainable": false, "axis": 3, "momentum": 0.99, "epsilon": 0.001, "center": true, "scale": false, "beta_initializer": {"class_name": "Zeros", "config": {}}, "gamma_initializer": {"class_name": "Ones", "config": {}}, "moving_mean_initializer": {"class_name": "Zeros", "config": {}}, "moving_variance_initializer": {"class_name": "Ones", "config": {}}, "beta_regularizer": null, "gamma_regularizer": null, "beta_constraint": null, "gamma_constraint": null}, "inbound_nodes": [[["conv2d_274", 0, 0, {}]]]}, {"name": "batch_normalization_276", "class_name": "BatchNormalization", "config": {"name": "batch_normalization_276", "trainable": false, "axis": 3, "momentum": 0.99, "epsilon": 0.001, "center": true, "scale": false, "beta_initializer": {"class_name": "Zeros", "config": {}}, "gamma_initializer": {"class_name": "Ones", "config": {}}, "moving_mean_initializer": {"class_name": "Zeros", "config": {}}, "moving_variance_initializer": {"class_name": "Ones", "config": {}}, "beta_regularizer": null, "gamma_regularizer": null, "beta_constraint": null, "gamma_constraint": null}, "inbound_nodes": [[["conv2d_277", 0, 0, {}]]]}, {"name": "batch_normalization_281", "class_name": "BatchNormalization", "config": {"name": "batch_normalization_281", "trainable": false, "axis": 3, "momentum": 0.99, "epsilon": 0.001, "center": true, "scale": false, "beta_initializer": {"class_name": "Zeros", "config": {}}, "gamma_initializer": {"class_name": "Ones", "config": {}}, "moving_mean_initializer": {"class_name": "Zeros", "config": {}}, "moving_variance_initializer": {"class_name": "Ones", "config": {}}, "beta_regularizer": null, "gamma_regularizer": null, "beta_constraint": null, "gamma_constraint": null}, "inbound_nodes": [[["conv2d_282", 0, 0, {}]]]}, {"name": "batch_normalization_282", "class_name": "BatchNormalization", "config": {"name": "batch_normalization_282", "trainable": false, "axis": 3, "momentum": 0.99, "epsilon": 0.001, "center": true, "scale": false, "beta_initializer": {"class_name": "Zeros", "config": {}}, "gamma_initializer": {"class_name": "Ones", "config": {}}, "moving_mean_initializer": {"class_name": "Zeros", "config": {}}, "moving_variance_initializer": {"class_name": "Ones", "config": {}}, "beta_regularizer": null, "gamma_regularizer": null, "beta_constraint": null, "gamma_constraint": null}, "inbound_nodes": [[["conv2d_283", 0, 0, {}]]]}, {"name": "activation_273", "class_name": "Activation", "config": {"name": "activation_273", "trainable": false, "activation": "relu"}, "inbound_nodes": [[["batch_normalization_273", 0, 0, {}]]]}, {"name": "activation_276", "class_name": "Activation", "config": {"name": "activation_276", "trainable": false, "activation": "relu"}, "inbound_nodes": [[["batch_normalization_276", 0, 0, {}]]]}, {"name": "activation_281", "class_name": "Activation", "config": {"name": "activation_281", "trainable": false, "activation": "relu"}, "inbound_nodes": [[["batch_normalization_281", 0, 0, {}]]]}, {"name": "activation_282", "class_name": "Activation", "config": {"name": "activation_282", "trainable": false, "activation": "relu"}, "inbound_nodes": [[["batch_normalization_282", 0, 0, {}]]]}, {"name": "mixed5", "class_name": "Concatenate", "config": {"name": "mixed5", "trainable": false, "axis": 3}, "inbound_nodes": [[["activation_273", 0, 0, {}], ["activation_276", 0, 0, {}], ["activation_281", 0, 0, {}], ["activation_282", 0, 0, {}]]]}, {"name": "conv2d_288", "class_name": "Conv2D", "config": {"name": "conv2d_288", "trainable": false, "filters": 160, "kernel_size": [1, 1], "strides": [1, 1], "padding": "same", "data_format": "channels_last", "dilation_rate": [1, 1], "activation": "linear", "use_bias": false, "kernel_initializer": {"class_name": "VarianceScaling", "config": {"scale": 1.0, "mode": "fan_avg", "distribution": "uniform", "seed": null}}, "bias_initializer": {"class_name": "Zeros", "config": {}}, "kernel_regularizer": null, "bias_regularizer": null, "activity_regularizer": null, "kernel_constraint": null, "bias_constraint": null}, "inbound_nodes": [[["mixed5", 0, 0, {}]]]}, {"name": "batch_normalization_287", "class_name": "BatchNormalization", "config": {"name": "batch_normalization_287", "trainable": false, "axis": 3, "momentum": 0.99, "epsilon": 0.001, "center": true, "scale": false, "beta_initializer": {"class_name": "Zeros", "config": {}}, "gamma_initializer": {"class_name": "Ones", "config": {}}, "moving_mean_initializer": {"class_name": "Zeros", "config": {}}, "moving_variance_initializer": {"class_name": "Ones", "config": {}}, "beta_regularizer": null, "gamma_regularizer": null, "beta_constraint": null, "gamma_constraint": null}, "inbound_nodes": [[["conv2d_288", 0, 0, {}]]]}, {"name": "activation_287", "class_name": "Activation", "config": {"name": "activation_287", "trainable": false, "activation": "relu"}, "inbound_nodes": [[["batch_normalization_287", 0, 0, {}]]]}, {"name": "conv2d_289", "class_name": "Conv2D", "config": {"name": "conv2d_289", "trainable": false, "filters": 160, "kernel_size": [7, 1], "strides": [1, 1], "padding": "same", "data_format": "channels_last", "dilation_rate": [1, 1], "activation": "linear", "use_bias": false, "kernel_initializer": {"class_name": "VarianceScaling", "config": {"scale": 1.0, "mode": "fan_avg", "distribution": "uniform", "seed": null}}, "bias_initializer": {"class_name": "Zeros", "config": {}}, "kernel_regularizer": null, "bias_regularizer": null, "activity_regularizer": null, "kernel_constraint": null, "bias_constraint": null}, "inbound_nodes": [[["activation_287", 0, 0, {}]]]}, {"name": "batch_normalization_288", "class_name": "BatchNormalization", "config": {"name": "batch_normalization_288", "trainable": false, "axis": 3, "momentum": 0.99, "epsilon": 0.001, "center": true, "scale": false, "beta_initializer": {"class_name": "Zeros", "config": {}}, "gamma_initializer": {"class_name": "Ones", "config": {}}, "moving_mean_initializer": {"class_name": "Zeros", "config": {}}, "moving_variance_initializer": {"class_name": "Ones", "config": {}}, "beta_regularizer": null, "gamma_regularizer": null, "beta_constraint": null, "gamma_constraint": null}, "inbound_nodes": [[["conv2d_289", 0, 0, {}]]]}, {"name": "activation_288", "class_name": "Activation", "config": {"name": "activation_288", "trainable": false, "activation": "relu"}, "inbound_nodes": [[["batch_normalization_288", 0, 0, {}]]]}, {"name": "conv2d_285", "class_name": "Conv2D", "config": {"name": "conv2d_285", "trainable": false, "filters": 160, "kernel_size": [1, 1], "strides": [1, 1], "padding": "same", "data_format": "channels_last", "dilation_rate": [1, 1], "activation": "linear", "use_bias": false, "kernel_initializer": {"class_name": "VarianceScaling", "config": {"scale": 1.0, "mode": "fan_avg", "distribution": "uniform", "seed": null}}, "bias_initializer": {"class_name": "Zeros", "config": {}}, "kernel_regularizer": null, "bias_regularizer": null, "activity_regularizer": null, "kernel_constraint": null, "bias_constraint": null}, "inbound_nodes": [[["mixed5", 0, 0, {}]]]}, {"name": "conv2d_290", "class_name": "Conv2D", "config": {"name": "conv2d_290", "trainable": true, "filters": 160, "kernel_size": [1, 7], "strides": [1, 1], "padding": "same", "data_format": "channels_last", "dilation_rate": [1, 1], "activation": "linear", "use_bias": false, "kernel_initializer": {"class_name": "VarianceScaling", "config": {"scale": 1.0, "mode": "fan_avg", "distribution": "uniform", "seed": null}}, "bias_initializer": {"class_name": "Zeros", "config": {}}, "kernel_regularizer": null, "bias_regularizer": null, "activity_regularizer": null, "kernel_constraint": null, "bias_constraint": null}, "inbound_nodes": [[["activation_288", 0, 0, {}]]]}, {"name": "batch_normalization_284", "class_name": "BatchNormalization", "config": {"name": "batch_normalization_284", "trainable": true, "axis": 3, "momentum": 0.99, "epsilon": 0.001, "center": true, "scale": false, "beta_initializer": {"class_name": "Zeros", "config": {}}, "gamma_initializer": {"class_name": "Ones", "config": {}}, "moving_mean_initializer": {"class_name": "Zeros", "config": {}}, "moving_variance_initializer": {"class_name": "Ones", "config": {}}, "beta_regularizer": null, "gamma_regularizer": null, "beta_constraint": null, "gamma_constraint": null}, "inbound_nodes": [[["conv2d_285", 0, 0, {}]]]}, {"name": "batch_normalization_289", "class_name": "BatchNormalization", "config": {"name": "batch_normalization_289", "trainable": true, "axis": 3, "momentum": 0.99, "epsilon": 0.001, "center": true, "scale": false, "beta_initializer": {"class_name": "Zeros", "config": {}}, "gamma_initializer": {"class_name": "Ones", "config": {}}, "moving_mean_initializer": {"class_name": "Zeros", "config": {}}, "moving_variance_initializer": {"class_name": "Ones", "config": {}}, "beta_regularizer": null, "gamma_regularizer": null, "beta_constraint": null, "gamma_constraint": null}, "inbound_nodes": [[["conv2d_290", 0, 0, {}]]]}, {"name": "activation_284", "class_name": "Activation", "config": {"name": "activation_284", "trainable": true, "activation": "relu"}, "inbound_nodes": [[["batch_normalization_284", 0, 0, {}]]]}, {"name": "activation_289", "class_name": "Activation", "config": {"name": "activation_289", "trainable": true, "activation": "relu"}, "inbound_nodes": [[["batch_normalization_289", 0, 0, {}]]]}, {"name": "conv2d_286", "class_name": "Conv2D", "config": {"name": "conv2d_286", "trainable": true, "filters": 160, "kernel_size": [1, 7], "strides": [1, 1], "padding": "same", "data_format": "channels_last", "dilation_rate": [1, 1], "activation": "linear", "use_bias": false, "kernel_initializer": {"class_name": "VarianceScaling", "config": {"scale": 1.0, "mode": "fan_avg", "distribution": "uniform", "seed": null}}, "bias_initializer": {"class_name": "Zeros", "config": {}}, "kernel_regularizer": null, "bias_regularizer": null, "activity_regularizer": null, "kernel_constraint": null, "bias_constraint": null}, "inbound_nodes": [[["activation_284", 0, 0, {}]]]}, {"name": "conv2d_291", "class_name": "Conv2D", "config": {"name": "conv2d_291", "trainable": true, "filters": 160, "kernel_size": [7, 1], "strides": [1, 1], "padding": "same", "data_format": "channels_last", "dilation_rate": [1, 1], "activation": "linear", "use_bias": false, "kernel_initializer": {"class_name": "VarianceScaling", "config": {"scale": 1.0, "mode": "fan_avg", "distribution": "uniform", "seed": null}}, "bias_initializer": {"class_name": "Zeros", "config": {}}, "kernel_regularizer": null, "bias_regularizer": null, "activity_regularizer": null, "kernel_constraint": null, "bias_constraint": null}, "inbound_nodes": [[["activation_289", 0, 0, {}]]]}, {"name": "batch_normalization_285", "class_name": "BatchNormalization", "config": {"name": "batch_normalization_285", "trainable": true, "axis": 3, "momentum": 0.99, "epsilon": 0.001, "center": true, "scale": false, "beta_initializer": {"class_name": "Zeros", "config": {}}, "gamma_initializer": {"class_name": "Ones", "config": {}}, "moving_mean_initializer": {"class_name": "Zeros", "config": {}}, "moving_variance_initializer": {"class_name": "Ones", "config": {}}, "beta_regularizer": null, "gamma_regularizer": null, "beta_constraint": null, "gamma_constraint": null}, "inbound_nodes": [[["conv2d_286", 0, 0, {}]]]}, {"name": "batch_normalization_290", "class_name": "BatchNormalization", "config": {"name": "batch_normalization_290", "trainable": true, "axis": 3, "momentum": 0.99, "epsilon": 0.001, "center": true, "scale": false, "beta_initializer": {"class_name": "Zeros", "config": {}}, "gamma_initializer": {"class_name": "Ones", "config": {}}, "moving_mean_initializer": {"class_name": "Zeros", "config": {}}, "moving_variance_initializer": {"class_name": "Ones", "config": {}}, "beta_regularizer": null, "gamma_regularizer": null, "beta_constraint": null, "gamma_constraint": null}, "inbound_nodes": [[["conv2d_291", 0, 0, {}]]]}, {"name": "activation_285", "class_name": "Activation", "config": {"name": "activation_285", "trainable": true, "activation": "relu"}, "inbound_nodes": [[["batch_normalization_285", 0, 0, {}]]]}, {"name": "activation_290", "class_name": "Activation", "config": {"name": "activation_290", "trainable": true, "activation": "relu"}, "inbound_nodes": [[["batch_normalization_290", 0, 0, {}]]]}, {"name": "average_pooling2d_28", "class_name": "AveragePooling2D", "config": {"name": "average_pooling2d_28", "trainable": true, "pool_size": [3, 3], "padding": "same", "strides": [1, 1], "data_format": "channels_last"}, "inbound_nodes": [[["mixed5", 0, 0, {}]]]}, {"name": "conv2d_284", "class_name": "Conv2D", "config": {"name": "conv2d_284", "trainable": true, "filters": 192, "kernel_size": [1, 1], "strides": [1, 1], "padding": "same", "data_format": "channels_last", "dilation_rate": [1, 1], "activation": "linear", "use_bias": false, "kernel_initializer": {"class_name": "VarianceScaling", "config": {"scale": 1.0, "mode": "fan_avg", "distribution": "uniform", "seed": null}}, "bias_initializer": {"class_name": "Zeros", "config": {}}, "kernel_regularizer": null, "bias_regularizer": null, "activity_regularizer": null, "kernel_constraint": null, "bias_constraint": null}, "inbound_nodes": [[["mixed5", 0, 0, {}]]]}, {"name": "conv2d_287", "class_name": "Conv2D", "config": {"name": "conv2d_287", "trainable": true, "filters": 192, "kernel_size": [7, 1], "strides": [1, 1], "padding": "same", "data_format": "channels_last", "dilation_rate": [1, 1], "activation": "linear", "use_bias": false, "kernel_initializer": {"class_name": "VarianceScaling", "config": {"scale": 1.0, "mode": "fan_avg", "distribution": "uniform", "seed": null}}, "bias_initializer": {"class_name": "Zeros", "config": {}}, "kernel_regularizer": null, "bias_regularizer": null, "activity_regularizer": null, "kernel_constraint": null, "bias_constraint": null}, "inbound_nodes": [[["activation_285", 0, 0, {}]]]}, {"name": "conv2d_292", "class_name": "Conv2D", "config": {"name": "conv2d_292", "trainable": true, "filters": 192, "kernel_size": [1, 7], "strides": [1, 1], "padding": "same", "data_format": "channels_last", "dilation_rate": [1, 1], "activation": "linear", "use_bias": false, "kernel_initializer": {"class_name": "VarianceScaling", "config": {"scale": 1.0, "mode": "fan_avg", "distribution": "uniform", "seed": null}}, "bias_initializer": {"class_name": "Zeros", "config": {}}, "kernel_regularizer": null, "bias_regularizer": null, "activity_regularizer": null, "kernel_constraint": null, "bias_constraint": null}, "inbound_nodes": [[["activation_290", 0, 0, {}]]]}, {"name": "conv2d_293", "class_name": "Conv2D", "config": {"name": "conv2d_293", "trainable": true, "filters": 192, "kernel_size": [1, 1], "strides": [1, 1], "padding": "same", "data_format": "channels_last", "dilation_rate": [1, 1], "activation": "linear", "use_bias": false, "kernel_initializer": {"class_name": "VarianceScaling", "config": {"scale": 1.0, "mode": "fan_avg", "distribution": "uniform", "seed": null}}, "bias_initializer": {"class_name": "Zeros", "config": {}}, "kernel_regularizer": null, "bias_regularizer": null, "activity_regularizer": null, "kernel_constraint": null, "bias_constraint": null}, "inbound_nodes": [[["average_pooling2d_28", 0, 0, {}]]]}, {"name": "batch_normalization_283", "class_name": "BatchNormalization", "config": {"name": "batch_normalization_283", "trainable": true, "axis": 3, "momentum": 0.99, "epsilon": 0.001, "center": true, "scale": false, "beta_initializer": {"class_name": "Zeros", "config": {}}, "gamma_initializer": {"class_name": "Ones", "config": {}}, "moving_mean_initializer": {"class_name": "Zeros", "config": {}}, "moving_variance_initializer": {"class_name": "Ones", "config": {}}, "beta_regularizer": null, "gamma_regularizer": null, "beta_constraint": null, "gamma_constraint": null}, "inbound_nodes": [[["conv2d_284", 0, 0, {}]]]}, {"name": "batch_normalization_286", "class_name": "BatchNormalization", "config": {"name": "batch_normalization_286", "trainable": true, "axis": 3, "momentum": 0.99, "epsilon": 0.001, "center": true, "scale": false, "beta_initializer": {"class_name": "Zeros", "config": {}}, "gamma_initializer": {"class_name": "Ones", "config": {}}, "moving_mean_initializer": {"class_name": "Zeros", "config": {}}, "moving_variance_initializer": {"class_name": "Ones", "config": {}}, "beta_regularizer": null, "gamma_regularizer": null, "beta_constraint": null, "gamma_constraint": null}, "inbound_nodes": [[["conv2d_287", 0, 0, {}]]]}, {"name": "batch_normalization_291", "class_name": "BatchNormalization", "config": {"name": "batch_normalization_291", "trainable": true, "axis": 3, "momentum": 0.99, "epsilon": 0.001, "center": true, "scale": false, "beta_initializer": {"class_name": "Zeros", "config": {}}, "gamma_initializer": {"class_name": "Ones", "config": {}}, "moving_mean_initializer": {"class_name": "Zeros", "config": {}}, "moving_variance_initializer": {"class_name": "Ones", "config": {}}, "beta_regularizer": null, "gamma_regularizer": null, "beta_constraint": null, "gamma_constraint": null}, "inbound_nodes": [[["conv2d_292", 0, 0, {}]]]}, {"name": "batch_normalization_292", "class_name": "BatchNormalization", "config": {"name": "batch_normalization_292", "trainable": true, "axis": 3, "momentum": 0.99, "epsilon": 0.001, "center": true, "scale": false, "beta_initializer": {"class_name": "Zeros", "config": {}}, "gamma_initializer": {"class_name": "Ones", "config": {}}, "moving_mean_initializer": {"class_name": "Zeros", "config": {}}, "moving_variance_initializer": {"class_name": "Ones", "config": {}}, "beta_regularizer": null, "gamma_regularizer": null, "beta_constraint": null, "gamma_constraint": null}, "inbound_nodes": [[["conv2d_293", 0, 0, {}]]]}, {"name": "activation_283", "class_name": "Activation", "config": {"name": "activation_283", "trainable": true, "activation": "relu"}, "inbound_nodes": [[["batch_normalization_283", 0, 0, {}]]]}, {"name": "activation_286", "class_name": "Activation", "config": {"name": "activation_286", "trainable": true, "activation": "relu"}, "inbound_nodes": [[["batch_normalization_286", 0, 0, {}]]]}, {"name": "activation_291", "class_name": "Activation", "config": {"name": "activation_291", "trainable": true, "activation": "relu"}, "inbound_nodes": [[["batch_normalization_291", 0, 0, {}]]]}, {"name": "activation_292", "class_name": "Activation", "config": {"name": "activation_292", "trainable": true, "activation": "relu"}, "inbound_nodes": [[["batch_normalization_292", 0, 0, {}]]]}, {"name": "mixed6", "class_name": "Concatenate", "config": {"name": "mixed6", "trainable": true, "axis": 3}, "inbound_nodes": [[["activation_283", 0, 0, {}], ["activation_286", 0, 0, {}], ["activation_291", 0, 0, {}], ["activation_292", 0, 0, {}]]]}, {"name": "conv2d_298", "class_name": "Conv2D", "config": {"name": "conv2d_298", "trainable": true, "filters": 192, "kernel_size": [1, 1], "strides": [1, 1], "padding": "same", "data_format": "channels_last", "dilation_rate": [1, 1], "activation": "linear", "use_bias": false, "kernel_initializer": {"class_name": "VarianceScaling", "config": {"scale": 1.0, "mode": "fan_avg", "distribution": "uniform", "seed": null}}, "bias_initializer": {"class_name": "Zeros", "config": {}}, "kernel_regularizer": null, "bias_regularizer": null, "activity_regularizer": null, "kernel_constraint": null, "bias_constraint": null}, "inbound_nodes": [[["mixed6", 0, 0, {}]]]}, {"name": "batch_normalization_297", "class_name": "BatchNormalization", "config": {"name": "batch_normalization_297", "trainable": true, "axis": 3, "momentum": 0.99, "epsilon": 0.001, "center": true, "scale": false, "beta_initializer": {"class_name": "Zeros", "config": {}}, "gamma_initializer": {"class_name": "Ones", "config": {}}, "moving_mean_initializer": {"class_name": "Zeros", "config": {}}, "moving_variance_initializer": {"class_name": "Ones", "config": {}}, "beta_regularizer": null, "gamma_regularizer": null, "beta_constraint": null, "gamma_constraint": null}, "inbound_nodes": [[["conv2d_298", 0, 0, {}]]]}, {"name": "activation_297", "class_name": "Activation", "config": {"name": "activation_297", "trainable": true, "activation": "relu"}, "inbound_nodes": [[["batch_normalization_297", 0, 0, {}]]]}, {"name": "conv2d_299", "class_name": "Conv2D", "config": {"name": "conv2d_299", "trainable": true, "filters": 192, "kernel_size": [7, 1], "strides": [1, 1], "padding": "same", "data_format": "channels_last", "dilation_rate": [1, 1], "activation": "linear", "use_bias": false, "kernel_initializer": {"class_name": "VarianceScaling", "config": {"scale": 1.0, "mode": "fan_avg", "distribution": "uniform", "seed": null}}, "bias_initializer": {"class_name": "Zeros", "config": {}}, "kernel_regularizer": null, "bias_regularizer": null, "activity_regularizer": null, "kernel_constraint": null, "bias_constraint": null}, "inbound_nodes": [[["activation_297", 0, 0, {}]]]}, {"name": "batch_normalization_298", "class_name": "BatchNormalization", "config": {"name": "batch_normalization_298", "trainable": true, "axis": 3, "momentum": 0.99, "epsilon": 0.001, "center": true, "scale": false, "beta_initializer": {"class_name": "Zeros", "config": {}}, "gamma_initializer": {"class_name": "Ones", "config": {}}, "moving_mean_initializer": {"class_name": "Zeros", "config": {}}, "moving_variance_initializer": {"class_name": "Ones", "config": {}}, "beta_regularizer": null, "gamma_regularizer": null, "beta_constraint": null, "gamma_constraint": null}, "inbound_nodes": [[["conv2d_299", 0, 0, {}]]]}, {"name": "activation_298", "class_name": "Activation", "config": {"name": "activation_298", "trainable": true, "activation": "relu"}, "inbound_nodes": [[["batch_normalization_298", 0, 0, {}]]]}, {"name": "conv2d_295", "class_name": "Conv2D", "config": {"name": "conv2d_295", "trainable": true, "filters": 192, "kernel_size": [1, 1], "strides": [1, 1], "padding": "same", "data_format": "channels_last", "dilation_rate": [1, 1], "activation": "linear", "use_bias": false, "kernel_initializer": {"class_name": "VarianceScaling", "config": {"scale": 1.0, "mode": "fan_avg", "distribution": "uniform", "seed": null}}, "bias_initializer": {"class_name": "Zeros", "config": {}}, "kernel_regularizer": null, "bias_regularizer": null, "activity_regularizer": null, "kernel_constraint": null, "bias_constraint": null}, "inbound_nodes": [[["mixed6", 0, 0, {}]]]}, {"name": "conv2d_300", "class_name": "Conv2D", "config": {"name": "conv2d_300", "trainable": true, "filters": 192, "kernel_size": [1, 7], "strides": [1, 1], "padding": "same", "data_format": "channels_last", "dilation_rate": [1, 1], "activation": "linear", "use_bias": false, "kernel_initializer": {"class_name": "VarianceScaling", "config": {"scale": 1.0, "mode": "fan_avg", "distribution": "uniform", "seed": null}}, "bias_initializer": {"class_name": "Zeros", "config": {}}, "kernel_regularizer": null, "bias_regularizer": null, "activity_regularizer": null, "kernel_constraint": null, "bias_constraint": null}, "inbound_nodes": [[["activation_298", 0, 0, {}]]]}, {"name": "batch_normalization_294", "class_name": "BatchNormalization", "config": {"name": "batch_normalization_294", "trainable": true, "axis": 3, "momentum": 0.99, "epsilon": 0.001, "center": true, "scale": false, "beta_initializer": {"class_name": "Zeros", "config": {}}, "gamma_initializer": {"class_name": "Ones", "config": {}}, "moving_mean_initializer": {"class_name": "Zeros", "config": {}}, "moving_variance_initializer": {"class_name": "Ones", "config": {}}, "beta_regularizer": null, "gamma_regularizer": null, "beta_constraint": null, "gamma_constraint": null}, "inbound_nodes": [[["conv2d_295", 0, 0, {}]]]}, {"name": "batch_normalization_299", "class_name": "BatchNormalization", "config": {"name": "batch_normalization_299", "trainable": true, "axis": 3, "momentum": 0.99, "epsilon": 0.001, "center": true, "scale": false, "beta_initializer": {"class_name": "Zeros", "config": {}}, "gamma_initializer": {"class_name": "Ones", "config": {}}, "moving_mean_initializer": {"class_name": "Zeros", "config": {}}, "moving_variance_initializer": {"class_name": "Ones", "config": {}}, "beta_regularizer": null, "gamma_regularizer": null, "beta_constraint": null, "gamma_constraint": null}, "inbound_nodes": [[["conv2d_300", 0, 0, {}]]]}, {"name": "activation_294", "class_name": "Activation", "config": {"name": "activation_294", "trainable": true, "activation": "relu"}, "inbound_nodes": [[["batch_normalization_294", 0, 0, {}]]]}, {"name": "activation_299", "class_name": "Activation", "config": {"name": "activation_299", "trainable": true, "activation": "relu"}, "inbound_nodes": [[["batch_normalization_299", 0, 0, {}]]]}, {"name": "conv2d_296", "class_name": "Conv2D", "config": {"name": "conv2d_296", "trainable": true, "filters": 192, "kernel_size": [1, 7], "strides": [1, 1], "padding": "same", "data_format": "channels_last", "dilation_rate": [1, 1], "activation": "linear", "use_bias": false, "kernel_initializer": {"class_name": "VarianceScaling", "config": {"scale": 1.0, "mode": "fan_avg", "distribution": "uniform", "seed": null}}, "bias_initializer": {"class_name": "Zeros", "config": {}}, "kernel_regularizer": null, "bias_regularizer": null, "activity_regularizer": null, "kernel_constraint": null, "bias_constraint": null}, "inbound_nodes": [[["activation_294", 0, 0, {}]]]}, {"name": "conv2d_301", "class_name": "Conv2D", "config": {"name": "conv2d_301", "trainable": true, "filters": 192, "kernel_size": [7, 1], "strides": [1, 1], "padding": "same", "data_format": "channels_last", "dilation_rate": [1, 1], "activation": "linear", "use_bias": false, "kernel_initializer": {"class_name": "VarianceScaling", "config": {"scale": 1.0, "mode": "fan_avg", "distribution": "uniform", "seed": null}}, "bias_initializer": {"class_name": "Zeros", "config": {}}, "kernel_regularizer": null, "bias_regularizer": null, "activity_regularizer": null, "kernel_constraint": null, "bias_constraint": null}, "inbound_nodes": [[["activation_299", 0, 0, {}]]]}, {"name": "batch_normalization_295", "class_name": "BatchNormalization", "config": {"name": "batch_normalization_295", "trainable": true, "axis": 3, "momentum": 0.99, "epsilon": 0.001, "center": true, "scale": false, "beta_initializer": {"class_name": "Zeros", "config": {}}, "gamma_initializer": {"class_name": "Ones", "config": {}}, "moving_mean_initializer": {"class_name": "Zeros", "config": {}}, "moving_variance_initializer": {"class_name": "Ones", "config": {}}, "beta_regularizer": null, "gamma_regularizer": null, "beta_constraint": null, "gamma_constraint": null}, "inbound_nodes": [[["conv2d_296", 0, 0, {}]]]}, {"name": "batch_normalization_300", "class_name": "BatchNormalization", "config": {"name": "batch_normalization_300", "trainable": true, "axis": 3, "momentum": 0.99, "epsilon": 0.001, "center": true, "scale": false, "beta_initializer": {"class_name": "Zeros", "config": {}}, "gamma_initializer": {"class_name": "Ones", "config": {}}, "moving_mean_initializer": {"class_name": "Zeros", "config": {}}, "moving_variance_initializer": {"class_name": "Ones", "config": {}}, "beta_regularizer": null, "gamma_regularizer": null, "beta_constraint": null, "gamma_constraint": null}, "inbound_nodes": [[["conv2d_301", 0, 0, {}]]]}, {"name": "activation_295", "class_name": "Activation", "config": {"name": "activation_295", "trainable": true, "activation": "relu"}, "inbound_nodes": [[["batch_normalization_295", 0, 0, {}]]]}, {"name": "activation_300", "class_name": "Activation", "config": {"name": "activation_300", "trainable": true, "activation": "relu"}, "inbound_nodes": [[["batch_normalization_300", 0, 0, {}]]]}, {"name": "average_pooling2d_29", "class_name": "AveragePooling2D", "config": {"name": "average_pooling2d_29", "trainable": true, "pool_size": [3, 3], "padding": "same", "strides": [1, 1], "data_format": "channels_last"}, "inbound_nodes": [[["mixed6", 0, 0, {}]]]}, {"name": "conv2d_294", "class_name": "Conv2D", "config": {"name": "conv2d_294", "trainable": true, "filters": 192, "kernel_size": [1, 1], "strides": [1, 1], "padding": "same", "data_format": "channels_last", "dilation_rate": [1, 1], "activation": "linear", "use_bias": false, "kernel_initializer": {"class_name": "VarianceScaling", "config": {"scale": 1.0, "mode": "fan_avg", "distribution": "uniform", "seed": null}}, "bias_initializer": {"class_name": "Zeros", "config": {}}, "kernel_regularizer": null, "bias_regularizer": null, "activity_regularizer": null, "kernel_constraint": null, "bias_constraint": null}, "inbound_nodes": [[["mixed6", 0, 0, {}]]]}, {"name": "conv2d_297", "class_name": "Conv2D", "config": {"name": "conv2d_297", "trainable": true, "filters": 192, "kernel_size": [7, 1], "strides": [1, 1], "padding": "same", "data_format": "channels_last", "dilation_rate": [1, 1], "activation": "linear", "use_bias": false, "kernel_initializer": {"class_name": "VarianceScaling", "config": {"scale": 1.0, "mode": "fan_avg", "distribution": "uniform", "seed": null}}, "bias_initializer": {"class_name": "Zeros", "config": {}}, "kernel_regularizer": null, "bias_regularizer": null, "activity_regularizer": null, "kernel_constraint": null, "bias_constraint": null}, "inbound_nodes": [[["activation_295", 0, 0, {}]]]}, {"name": "conv2d_302", "class_name": "Conv2D", "config": {"name": "conv2d_302", "trainable": true, "filters": 192, "kernel_size": [1, 7], "strides": [1, 1], "padding": "same", "data_format": "channels_last", "dilation_rate": [1, 1], "activation": "linear", "use_bias": false, "kernel_initializer": {"class_name": "VarianceScaling", "config": {"scale": 1.0, "mode": "fan_avg", "distribution": "uniform", "seed": null}}, "bias_initializer": {"class_name": "Zeros", "config": {}}, "kernel_regularizer": null, "bias_regularizer": null, "activity_regularizer": null, "kernel_constraint": null, "bias_constraint": null}, "inbound_nodes": [[["activation_300", 0, 0, {}]]]}, {"name": "conv2d_303", "class_name": "Conv2D", "config": {"name": "conv2d_303", "trainable": true, "filters": 192, "kernel_size": [1, 1], "strides": [1, 1], "padding": "same", "data_format": "channels_last", "dilation_rate": [1, 1], "activation": "linear", "use_bias": false, "kernel_initializer": {"class_name": "VarianceScaling", "config": {"scale": 1.0, "mode": "fan_avg", "distribution": "uniform", "seed": null}}, "bias_initializer": {"class_name": "Zeros", "config": {}}, "kernel_regularizer": null, "bias_regularizer": null, "activity_regularizer": null, "kernel_constraint": null, "bias_constraint": null}, "inbound_nodes": [[["average_pooling2d_29", 0, 0, {}]]]}, {"name": "batch_normalization_293", "class_name": "BatchNormalization", "config": {"name": "batch_normalization_293", "trainable": true, "axis": 3, "momentum": 0.99, "epsilon": 0.001, "center": true, "scale": false, "beta_initializer": {"class_name": "Zeros", "config": {}}, "gamma_initializer": {"class_name": "Ones", "config": {}}, "moving_mean_initializer": {"class_name": "Zeros", "config": {}}, "moving_variance_initializer": {"class_name": "Ones", "config": {}}, "beta_regularizer": null, "gamma_regularizer": null, "beta_constraint": null, "gamma_constraint": null}, "inbound_nodes": [[["conv2d_294", 0, 0, {}]]]}, {"name": "batch_normalization_296", "class_name": "BatchNormalization", "config": {"name": "batch_normalization_296", "trainable": true, "axis": 3, "momentum": 0.99, "epsilon": 0.001, "center": true, "scale": false, "beta_initializer": {"class_name": "Zeros", "config": {}}, "gamma_initializer": {"class_name": "Ones", "config": {}}, "moving_mean_initializer": {"class_name": "Zeros", "config": {}}, "moving_variance_initializer": {"class_name": "Ones", "config": {}}, "beta_regularizer": null, "gamma_regularizer": null, "beta_constraint": null, "gamma_constraint": null}, "inbound_nodes": [[["conv2d_297", 0, 0, {}]]]}, {"name": "batch_normalization_301", "class_name": "BatchNormalization", "config": {"name": "batch_normalization_301", "trainable": true, "axis": 3, "momentum": 0.99, "epsilon": 0.001, "center": true, "scale": false, "beta_initializer": {"class_name": "Zeros", "config": {}}, "gamma_initializer": {"class_name": "Ones", "config": {}}, "moving_mean_initializer": {"class_name": "Zeros", "config": {}}, "moving_variance_initializer": {"class_name": "Ones", "config": {}}, "beta_regularizer": null, "gamma_regularizer": null, "beta_constraint": null, "gamma_constraint": null}, "inbound_nodes": [[["conv2d_302", 0, 0, {}]]]}, {"name": "batch_normalization_302", "class_name": "BatchNormalization", "config": {"name": "batch_normalization_302", "trainable": true, "axis": 3, "momentum": 0.99, "epsilon": 0.001, "center": true, "scale": false, "beta_initializer": {"class_name": "Zeros", "config": {}}, "gamma_initializer": {"class_name": "Ones", "config": {}}, "moving_mean_initializer": {"class_name": "Zeros", "config": {}}, "moving_variance_initializer": {"class_name": "Ones", "config": {}}, "beta_regularizer": null, "gamma_regularizer": null, "beta_constraint": null, "gamma_constraint": null}, "inbound_nodes": [[["conv2d_303", 0, 0, {}]]]}, {"name": "activation_293", "class_name": "Activation", "config": {"name": "activation_293", "trainable": true, "activation": "relu"}, "inbound_nodes": [[["batch_normalization_293", 0, 0, {}]]]}, {"name": "activation_296", "class_name": "Activation", "config": {"name": "activation_296", "trainable": true, "activation": "relu"}, "inbound_nodes": [[["batch_normalization_296", 0, 0, {}]]]}, {"name": "activation_301", "class_name": "Activation", "config": {"name": "activation_301", "trainable": true, "activation": "relu"}, "inbound_nodes": [[["batch_normalization_301", 0, 0, {}]]]}, {"name": "activation_302", "class_name": "Activation", "config": {"name": "activation_302", "trainable": true, "activation": "relu"}, "inbound_nodes": [[["batch_normalization_302", 0, 0, {}]]]}, {"name": "mixed7", "class_name": "Concatenate", "config": {"name": "mixed7", "trainable": true, "axis": 3}, "inbound_nodes": [[["activation_293", 0, 0, {}], ["activation_296", 0, 0, {}], ["activation_301", 0, 0, {}], ["activation_302", 0, 0, {}]]]}, {"name": "conv2d_306", "class_name": "Conv2D", "config": {"name": "conv2d_306", "trainable": true, "filters": 192, "kernel_size": [1, 1], "strides": [1, 1], "padding": "same", "data_format": "channels_last", "dilation_rate": [1, 1], "activation": "linear", "use_bias": false, "kernel_initializer": {"class_name": "VarianceScaling", "config": {"scale": 1.0, "mode": "fan_avg", "distribution": "uniform", "seed": null}}, "bias_initializer": {"class_name": "Zeros", "config": {}}, "kernel_regularizer": null, "bias_regularizer": null, "activity_regularizer": null, "kernel_constraint": null, "bias_constraint": null}, "inbound_nodes": [[["mixed7", 0, 0, {}]]]}, {"name": "batch_normalization_305", "class_name": "BatchNormalization", "config": {"name": "batch_normalization_305", "trainable": true, "axis": 3, "momentum": 0.99, "epsilon": 0.001, "center": true, "scale": false, "beta_initializer": {"class_name": "Zeros", "config": {}}, "gamma_initializer": {"class_name": "Ones", "config": {}}, "moving_mean_initializer": {"class_name": "Zeros", "config": {}}, "moving_variance_initializer": {"class_name": "Ones", "config": {}}, "beta_regularizer": null, "gamma_regularizer": null, "beta_constraint": null, "gamma_constraint": null}, "inbound_nodes": [[["conv2d_306", 0, 0, {}]]]}, {"name": "activation_305", "class_name": "Activation", "config": {"name": "activation_305", "trainable": true, "activation": "relu"}, "inbound_nodes": [[["batch_normalization_305", 0, 0, {}]]]}, {"name": "conv2d_307", "class_name": "Conv2D", "config": {"name": "conv2d_307", "trainable": true, "filters": 192, "kernel_size": [1, 7], "strides": [1, 1], "padding": "same", "data_format": "channels_last", "dilation_rate": [1, 1], "activation": "linear", "use_bias": false, "kernel_initializer": {"class_name": "VarianceScaling", "config": {"scale": 1.0, "mode": "fan_avg", "distribution": "uniform", "seed": null}}, "bias_initializer": {"class_name": "Zeros", "config": {}}, "kernel_regularizer": null, "bias_regularizer": null, "activity_regularizer": null, "kernel_constraint": null, "bias_constraint": null}, "inbound_nodes": [[["activation_305", 0, 0, {}]]]}, {"name": "batch_normalization_306", "class_name": "BatchNormalization", "config": {"name": "batch_normalization_306", "trainable": true, "axis": 3, "momentum": 0.99, "epsilon": 0.001, "center": true, "scale": false, "beta_initializer": {"class_name": "Zeros", "config": {}}, "gamma_initializer": {"class_name": "Ones", "config": {}}, "moving_mean_initializer": {"class_name": "Zeros", "config": {}}, "moving_variance_initializer": {"class_name": "Ones", "config": {}}, "beta_regularizer": null, "gamma_regularizer": null, "beta_constraint": null, "gamma_constraint": null}, "inbound_nodes": [[["conv2d_307", 0, 0, {}]]]}, {"name": "activation_306", "class_name": "Activation", "config": {"name": "activation_306", "trainable": true, "activation": "relu"}, "inbound_nodes": [[["batch_normalization_306", 0, 0, {}]]]}, {"name": "conv2d_304", "class_name": "Conv2D", "config": {"name": "conv2d_304", "trainable": true, "filters": 192, "kernel_size": [1, 1], "strides": [1, 1], "padding": "same", "data_format": "channels_last", "dilation_rate": [1, 1], "activation": "linear", "use_bias": false, "kernel_initializer": {"class_name": "VarianceScaling", "config": {"scale": 1.0, "mode": "fan_avg", "distribution": "uniform", "seed": null}}, "bias_initializer": {"class_name": "Zeros", "config": {}}, "kernel_regularizer": null, "bias_regularizer": null, "activity_regularizer": null, "kernel_constraint": null, "bias_constraint": null}, "inbound_nodes": [[["mixed7", 0, 0, {}]]]}, {"name": "conv2d_308", "class_name": "Conv2D", "config": {"name": "conv2d_308", "trainable": true, "filters": 192, "kernel_size": [7, 1], "strides": [1, 1], "padding": "same", "data_format": "channels_last", "dilation_rate": [1, 1], "activation": "linear", "use_bias": false, "kernel_initializer": {"class_name": "VarianceScaling", "config": {"scale": 1.0, "mode": "fan_avg", "distribution": "uniform", "seed": null}}, "bias_initializer": {"class_name": "Zeros", "config": {}}, "kernel_regularizer": null, "bias_regularizer": null, "activity_regularizer": null, "kernel_constraint": null, "bias_constraint": null}, "inbound_nodes": [[["activation_306", 0, 0, {}]]]}, {"name": "batch_normalization_303", "class_name": "BatchNormalization", "config": {"name": "batch_normalization_303", "trainable": true, "axis": 3, "momentum": 0.99, "epsilon": 0.001, "center": true, "scale": false, "beta_initializer": {"class_name": "Zeros", "config": {}}, "gamma_initializer": {"class_name": "Ones", "config": {}}, "moving_mean_initializer": {"class_name": "Zeros", "config": {}}, "moving_variance_initializer": {"class_name": "Ones", "config": {}}, "beta_regularizer": null, "gamma_regularizer": null, "beta_constraint": null, "gamma_constraint": null}, "inbound_nodes": [[["conv2d_304", 0, 0, {}]]]}, {"name": "batch_normalization_307", "class_name": "BatchNormalization", "config": {"name": "batch_normalization_307", "trainable": true, "axis": 3, "momentum": 0.99, "epsilon": 0.001, "center": true, "scale": false, "beta_initializer": {"class_name": "Zeros", "config": {}}, "gamma_initializer": {"class_name": "Ones", "config": {}}, "moving_mean_initializer": {"class_name": "Zeros", "config": {}}, "moving_variance_initializer": {"class_name": "Ones", "config": {}}, "beta_regularizer": null, "gamma_regularizer": null, "beta_constraint": null, "gamma_constraint": null}, "inbound_nodes": [[["conv2d_308", 0, 0, {}]]]}, {"name": "activation_303", "class_name": "Activation", "config": {"name": "activation_303", "trainable": true, "activation": "relu"}, "inbound_nodes": [[["batch_normalization_303", 0, 0, {}]]]}, {"name": "activation_307", "class_name": "Activation", "config": {"name": "activation_307", "trainable": true, "activation": "relu"}, "inbound_nodes": [[["batch_normalization_307", 0, 0, {}]]]}, {"name": "conv2d_305", "class_name": "Conv2D", "config": {"name": "conv2d_305", "trainable": true, "filters": 320, "kernel_size": [3, 3], "strides": [2, 2], "padding": "valid", "data_format": "channels_last", "dilation_rate": [1, 1], "activation": "linear", "use_bias": false, "kernel_initializer": {"class_name": "VarianceScaling", "config": {"scale": 1.0, "mode": "fan_avg", "distribution": "uniform", "seed": null}}, "bias_initializer": {"class_name": "Zeros", "config": {}}, "kernel_regularizer": null, "bias_regularizer": null, "activity_regularizer": null, "kernel_constraint": null, "bias_constraint": null}, "inbound_nodes": [[["activation_303", 0, 0, {}]]]}, {"name": "conv2d_309", "class_name": "Conv2D", "config": {"name": "conv2d_309", "trainable": true, "filters": 192, "kernel_size": [3, 3], "strides": [2, 2], "padding": "valid", "data_format": "channels_last", "dilation_rate": [1, 1], "activation": "linear", "use_bias": false, "kernel_initializer": {"class_name": "VarianceScaling", "config": {"scale": 1.0, "mode": "fan_avg", "distribution": "uniform", "seed": null}}, "bias_initializer": {"class_name": "Zeros", "config": {}}, "kernel_regularizer": null, "bias_regularizer": null, "activity_regularizer": null, "kernel_constraint": null, "bias_constraint": null}, "inbound_nodes": [[["activation_307", 0, 0, {}]]]}, {"name": "batch_normalization_304", "class_name": "BatchNormalization", "config": {"name": "batch_normalization_304", "trainable": true, "axis": 3, "momentum": 0.99, "epsilon": 0.001, "center": true, "scale": false, "beta_initializer": {"class_name": "Zeros", "config": {}}, "gamma_initializer": {"class_name": "Ones", "config": {}}, "moving_mean_initializer": {"class_name": "Zeros", "config": {}}, "moving_variance_initializer": {"class_name": "Ones", "config": {}}, "beta_regularizer": null, "gamma_regularizer": null, "beta_constraint": null, "gamma_constraint": null}, "inbound_nodes": [[["conv2d_305", 0, 0, {}]]]}, {"name": "batch_normalization_308", "class_name": "BatchNormalization", "config": {"name": "batch_normalization_308", "trainable": true, "axis": 3, "momentum": 0.99, "epsilon": 0.001, "center": true, "scale": false, "beta_initializer": {"class_name": "Zeros", "config": {}}, "gamma_initializer": {"class_name": "Ones", "config": {}}, "moving_mean_initializer": {"class_name": "Zeros", "config": {}}, "moving_variance_initializer": {"class_name": "Ones", "config": {}}, "beta_regularizer": null, "gamma_regularizer": null, "beta_constraint": null, "gamma_constraint": null}, "inbound_nodes": [[["conv2d_309", 0, 0, {}]]]}, {"name": "activation_304", "class_name": "Activation", "config": {"name": "activation_304", "trainable": true, "activation": "relu"}, "inbound_nodes": [[["batch_normalization_304", 0, 0, {}]]]}, {"name": "activation_308", "class_name": "Activation", "config": {"name": "activation_308", "trainable": true, "activation": "relu"}, "inbound_nodes": [[["batch_normalization_308", 0, 0, {}]]]}, {"name": "max_pooling2d_15", "class_name": "MaxPooling2D", "config": {"name": "max_pooling2d_15", "trainable": true, "pool_size": [3, 3], "padding": "valid", "strides": [2, 2], "data_format": "channels_last"}, "inbound_nodes": [[["mixed7", 0, 0, {}]]]}, {"name": "mixed8", "class_name": "Concatenate", "config": {"name": "mixed8", "trainable": true, "axis": 3}, "inbound_nodes": [[["activation_304", 0, 0, {}], ["activation_308", 0, 0, {}], ["max_pooling2d_15", 0, 0, {}]]]}, {"name": "conv2d_314", "class_name": "Conv2D", "config": {"name": "conv2d_314", "trainable": true, "filters": 448, "kernel_size": [1, 1], "strides": [1, 1], "padding": "same", "data_format": "channels_last", "dilation_rate": [1, 1], "activation": "linear", "use_bias": false, "kernel_initializer": {"class_name": "VarianceScaling", "config": {"scale": 1.0, "mode": "fan_avg", "distribution": "uniform", "seed": null}}, "bias_initializer": {"class_name": "Zeros", "config": {}}, "kernel_regularizer": null, "bias_regularizer": null, "activity_regularizer": null, "kernel_constraint": null, "bias_constraint": null}, "inbound_nodes": [[["mixed8", 0, 0, {}]]]}, {"name": "batch_normalization_313", "class_name": "BatchNormalization", "config": {"name": "batch_normalization_313", "trainable": true, "axis": 3, "momentum": 0.99, "epsilon": 0.001, "center": true, "scale": false, "beta_initializer": {"class_name": "Zeros", "config": {}}, "gamma_initializer": {"class_name": "Ones", "config": {}}, "moving_mean_initializer": {"class_name": "Zeros", "config": {}}, "moving_variance_initializer": {"class_name": "Ones", "config": {}}, "beta_regularizer": null, "gamma_regularizer": null, "beta_constraint": null, "gamma_constraint": null}, "inbound_nodes": [[["conv2d_314", 0, 0, {}]]]}, {"name": "activation_313", "class_name": "Activation", "config": {"name": "activation_313", "trainable": true, "activation": "relu"}, "inbound_nodes": [[["batch_normalization_313", 0, 0, {}]]]}, {"name": "conv2d_311", "class_name": "Conv2D", "config": {"name": "conv2d_311", "trainable": true, "filters": 384, "kernel_size": [1, 1], "strides": [1, 1], "padding": "same", "data_format": "channels_last", "dilation_rate": [1, 1], "activation": "linear", "use_bias": false, "kernel_initializer": {"class_name": "VarianceScaling", "config": {"scale": 1.0, "mode": "fan_avg", "distribution": "uniform", "seed": null}}, "bias_initializer": {"class_name": "Zeros", "config": {}}, "kernel_regularizer": null, "bias_regularizer": null, "activity_regularizer": null, "kernel_constraint": null, "bias_constraint": null}, "inbound_nodes": [[["mixed8", 0, 0, {}]]]}, {"name": "conv2d_315", "class_name": "Conv2D", "config": {"name": "conv2d_315", "trainable": true, "filters": 384, "kernel_size": [3, 3], "strides": [1, 1], "padding": "same", "data_format": "channels_last", "dilation_rate": [1, 1], "activation": "linear", "use_bias": false, "kernel_initializer": {"class_name": "VarianceScaling", "config": {"scale": 1.0, "mode": "fan_avg", "distribution": "uniform", "seed": null}}, "bias_initializer": {"class_name": "Zeros", "config": {}}, "kernel_regularizer": null, "bias_regularizer": null, "activity_regularizer": null, "kernel_constraint": null, "bias_constraint": null}, "inbound_nodes": [[["activation_313", 0, 0, {}]]]}, {"name": "batch_normalization_310", "class_name": "BatchNormalization", "config": {"name": "batch_normalization_310", "trainable": true, "axis": 3, "momentum": 0.99, "epsilon": 0.001, "center": true, "scale": false, "beta_initializer": {"class_name": "Zeros", "config": {}}, "gamma_initializer": {"class_name": "Ones", "config": {}}, "moving_mean_initializer": {"class_name": "Zeros", "config": {}}, "moving_variance_initializer": {"class_name": "Ones", "config": {}}, "beta_regularizer": null, "gamma_regularizer": null, "beta_constraint": null, "gamma_constraint": null}, "inbound_nodes": [[["conv2d_311", 0, 0, {}]]]}, {"name": "batch_normalization_314", "class_name": "BatchNormalization", "config": {"name": "batch_normalization_314", "trainable": true, "axis": 3, "momentum": 0.99, "epsilon": 0.001, "center": true, "scale": false, "beta_initializer": {"class_name": "Zeros", "config": {}}, "gamma_initializer": {"class_name": "Ones", "config": {}}, "moving_mean_initializer": {"class_name": "Zeros", "config": {}}, "moving_variance_initializer": {"class_name": "Ones", "config": {}}, "beta_regularizer": null, "gamma_regularizer": null, "beta_constraint": null, "gamma_constraint": null}, "inbound_nodes": [[["conv2d_315", 0, 0, {}]]]}, {"name": "activation_310", "class_name": "Activation", "config": {"name": "activation_310", "trainable": true, "activation": "relu"}, "inbound_nodes": [[["batch_normalization_310", 0, 0, {}]]]}, {"name": "activation_314", "class_name": "Activation", "config": {"name": "activation_314", "trainable": true, "activation": "relu"}, "inbound_nodes": [[["batch_normalization_314", 0, 0, {}]]]}, {"name": "conv2d_312", "class_name": "Conv2D", "config": {"name": "conv2d_312", "trainable": true, "filters": 384, "kernel_size": [1, 3], "strides": [1, 1], "padding": "same", "data_format": "channels_last", "dilation_rate": [1, 1], "activation": "linear", "use_bias": false, "kernel_initializer": {"class_name": "VarianceScaling", "config": {"scale": 1.0, "mode": "fan_avg", "distribution": "uniform", "seed": null}}, "bias_initializer": {"class_name": "Zeros", "config": {}}, "kernel_regularizer": null, "bias_regularizer": null, "activity_regularizer": null, "kernel_constraint": null, "bias_constraint": null}, "inbound_nodes": [[["activation_310", 0, 0, {}]]]}, {"name": "conv2d_313", "class_name": "Conv2D", "config": {"name": "conv2d_313", "trainable": true, "filters": 384, "kernel_size": [3, 1], "strides": [1, 1], "padding": "same", "data_format": "channels_last", "dilation_rate": [1, 1], "activation": "linear", "use_bias": false, "kernel_initializer": {"class_name": "VarianceScaling", "config": {"scale": 1.0, "mode": "fan_avg", "distribution": "uniform", "seed": null}}, "bias_initializer": {"class_name": "Zeros", "config": {}}, "kernel_regularizer": null, "bias_regularizer": null, "activity_regularizer": null, "kernel_constraint": null, "bias_constraint": null}, "inbound_nodes": [[["activation_310", 0, 0, {}]]]}, {"name": "conv2d_316", "class_name": "Conv2D", "config": {"name": "conv2d_316", "trainable": true, "filters": 384, "kernel_size": [1, 3], "strides": [1, 1], "padding": "same", "data_format": "channels_last", "dilation_rate": [1, 1], "activation": "linear", "use_bias": false, "kernel_initializer": {"class_name": "VarianceScaling", "config": {"scale": 1.0, "mode": "fan_avg", "distribution": "uniform", "seed": null}}, "bias_initializer": {"class_name": "Zeros", "config": {}}, "kernel_regularizer": null, "bias_regularizer": null, "activity_regularizer": null, "kernel_constraint": null, "bias_constraint": null}, "inbound_nodes": [[["activation_314", 0, 0, {}]]]}, {"name": "conv2d_317", "class_name": "Conv2D", "config": {"name": "conv2d_317", "trainable": true, "filters": 384, "kernel_size": [3, 1], "strides": [1, 1], "padding": "same", "data_format": "channels_last", "dilation_rate": [1, 1], "activation": "linear", "use_bias": false, "kernel_initializer": {"class_name": "VarianceScaling", "config": {"scale": 1.0, "mode": "fan_avg", "distribution": "uniform", "seed": null}}, "bias_initializer": {"class_name": "Zeros", "config": {}}, "kernel_regularizer": null, "bias_regularizer": null, "activity_regularizer": null, "kernel_constraint": null, "bias_constraint": null}, "inbound_nodes": [[["activation_314", 0, 0, {}]]]}, {"name": "average_pooling2d_30", "class_name": "AveragePooling2D", "config": {"name": "average_pooling2d_30", "trainable": true, "pool_size": [3, 3], "padding": "same", "strides": [1, 1], "data_format": "channels_last"}, "inbound_nodes": [[["mixed8", 0, 0, {}]]]}, {"name": "conv2d_310", "class_name": "Conv2D", "config": {"name": "conv2d_310", "trainable": true, "filters": 320, "kernel_size": [1, 1], "strides": [1, 1], "padding": "same", "data_format": "channels_last", "dilation_rate": [1, 1], "activation": "linear", "use_bias": false, "kernel_initializer": {"class_name": "VarianceScaling", "config": {"scale": 1.0, "mode": "fan_avg", "distribution": "uniform", "seed": null}}, "bias_initializer": {"class_name": "Zeros", "config": {}}, "kernel_regularizer": null, "bias_regularizer": null, "activity_regularizer": null, "kernel_constraint": null, "bias_constraint": null}, "inbound_nodes": [[["mixed8", 0, 0, {}]]]}, {"name": "batch_normalization_311", "class_name": "BatchNormalization", "config": {"name": "batch_normalization_311", "trainable": true, "axis": 3, "momentum": 0.99, "epsilon": 0.001, "center": true, "scale": false, "beta_initializer": {"class_name": "Zeros", "config": {}}, "gamma_initializer": {"class_name": "Ones", "config": {}}, "moving_mean_initializer": {"class_name": "Zeros", "config": {}}, "moving_variance_initializer": {"class_name": "Ones", "config": {}}, "beta_regularizer": null, "gamma_regularizer": null, "beta_constraint": null, "gamma_constraint": null}, "inbound_nodes": [[["conv2d_312", 0, 0, {}]]]}, {"name": "batch_normalization_312", "class_name": "BatchNormalization", "config": {"name": "batch_normalization_312", "trainable": true, "axis": 3, "momentum": 0.99, "epsilon": 0.001, "center": true, "scale": false, "beta_initializer": {"class_name": "Zeros", "config": {}}, "gamma_initializer": {"class_name": "Ones", "config": {}}, "moving_mean_initializer": {"class_name": "Zeros", "config": {}}, "moving_variance_initializer": {"class_name": "Ones", "config": {}}, "beta_regularizer": null, "gamma_regularizer": null, "beta_constraint": null, "gamma_constraint": null}, "inbound_nodes": [[["conv2d_313", 0, 0, {}]]]}, {"name": "batch_normalization_315", "class_name": "BatchNormalization", "config": {"name": "batch_normalization_315", "trainable": true, "axis": 3, "momentum": 0.99, "epsilon": 0.001, "center": true, "scale": false, "beta_initializer": {"class_name": "Zeros", "config": {}}, "gamma_initializer": {"class_name": "Ones", "config": {}}, "moving_mean_initializer": {"class_name": "Zeros", "config": {}}, "moving_variance_initializer": {"class_name": "Ones", "config": {}}, "beta_regularizer": null, "gamma_regularizer": null, "beta_constraint": null, "gamma_constraint": null}, "inbound_nodes": [[["conv2d_316", 0, 0, {}]]]}, {"name": "batch_normalization_316", "class_name": "BatchNormalization", "config": {"name": "batch_normalization_316", "trainable": true, "axis": 3, "momentum": 0.99, "epsilon": 0.001, "center": true, "scale": false, "beta_initializer": {"class_name": "Zeros", "config": {}}, "gamma_initializer": {"class_name": "Ones", "config": {}}, "moving_mean_initializer": {"class_name": "Zeros", "config": {}}, "moving_variance_initializer": {"class_name": "Ones", "config": {}}, "beta_regularizer": null, "gamma_regularizer": null, "beta_constraint": null, "gamma_constraint": null}, "inbound_nodes": [[["conv2d_317", 0, 0, {}]]]}, {"name": "conv2d_318", "class_name": "Conv2D", "config": {"name": "conv2d_318", "trainable": true, "filters": 192, "kernel_size": [1, 1], "strides": [1, 1], "padding": "same", "data_format": "channels_last", "dilation_rate": [1, 1], "activation": "linear", "use_bias": false, "kernel_initializer": {"class_name": "VarianceScaling", "config": {"scale": 1.0, "mode": "fan_avg", "distribution": "uniform", "seed": null}}, "bias_initializer": {"class_name": "Zeros", "config": {}}, "kernel_regularizer": null, "bias_regularizer": null, "activity_regularizer": null, "kernel_constraint": null, "bias_constraint": null}, "inbound_nodes": [[["average_pooling2d_30", 0, 0, {}]]]}, {"name": "batch_normalization_309", "class_name": "BatchNormalization", "config": {"name": "batch_normalization_309", "trainable": true, "axis": 3, "momentum": 0.99, "epsilon": 0.001, "center": true, "scale": false, "beta_initializer": {"class_name": "Zeros", "config": {}}, "gamma_initializer": {"class_name": "Ones", "config": {}}, "moving_mean_initializer": {"class_name": "Zeros", "config": {}}, "moving_variance_initializer": {"class_name": "Ones", "config": {}}, "beta_regularizer": null, "gamma_regularizer": null, "beta_constraint": null, "gamma_constraint": null}, "inbound_nodes": [[["conv2d_310", 0, 0, {}]]]}, {"name": "activation_311", "class_name": "Activation", "config": {"name": "activation_311", "trainable": true, "activation": "relu"}, "inbound_nodes": [[["batch_normalization_311", 0, 0, {}]]]}, {"name": "activation_312", "class_name": "Activation", "config": {"name": "activation_312", "trainable": true, "activation": "relu"}, "inbound_nodes": [[["batch_normalization_312", 0, 0, {}]]]}, {"name": "activation_315", "class_name": "Activation", "config": {"name": "activation_315", "trainable": true, "activation": "relu"}, "inbound_nodes": [[["batch_normalization_315", 0, 0, {}]]]}, {"name": "activation_316", "class_name": "Activation", "config": {"name": "activation_316", "trainable": true, "activation": "relu"}, "inbound_nodes": [[["batch_normalization_316", 0, 0, {}]]]}, {"name": "batch_normalization_317", "class_name": "BatchNormalization", "config": {"name": "batch_normalization_317", "trainable": true, "axis": 3, "momentum": 0.99, "epsilon": 0.001, "center": true, "scale": false, "beta_initializer": {"class_name": "Zeros", "config": {}}, "gamma_initializer": {"class_name": "Ones", "config": {}}, "moving_mean_initializer": {"class_name": "Zeros", "config": {}}, "moving_variance_initializer": {"class_name": "Ones", "config": {}}, "beta_regularizer": null, "gamma_regularizer": null, "beta_constraint": null, "gamma_constraint": null}, "inbound_nodes": [[["conv2d_318", 0, 0, {}]]]}, {"name": "activation_309", "class_name": "Activation", "config": {"name": "activation_309", "trainable": true, "activation": "relu"}, "inbound_nodes": [[["batch_normalization_309", 0, 0, {}]]]}, {"name": "mixed9_0", "class_name": "Concatenate", "config": {"name": "mixed9_0", "trainable": true, "axis": 3}, "inbound_nodes": [[["activation_311", 0, 0, {}], ["activation_312", 0, 0, {}]]]}, {"name": "concatenate_5", "class_name": "Concatenate", "config": {"name": "concatenate_5", "trainable": true, "axis": 3}, "inbound_nodes": [[["activation_315", 0, 0, {}], ["activation_316", 0, 0, {}]]]}, {"name": "activation_317", "class_name": "Activation", "config": {"name": "activation_317", "trainable": true, "activation": "relu"}, "inbound_nodes": [[["batch_normalization_317", 0, 0, {}]]]}, {"name": "mixed9", "class_name": "Concatenate", "config": {"name": "mixed9", "trainable": true, "axis": 3}, "inbound_nodes": [[["activation_309", 0, 0, {}], ["mixed9_0", 0, 0, {}], ["concatenate_5", 0, 0, {}], ["activation_317", 0, 0, {}]]]}, {"name": "conv2d_323", "class_name": "Conv2D", "config": {"name": "conv2d_323", "trainable": true, "filters": 448, "kernel_size": [1, 1], "strides": [1, 1], "padding": "same", "data_format": "channels_last", "dilation_rate": [1, 1], "activation": "linear", "use_bias": false, "kernel_initializer": {"class_name": "VarianceScaling", "config": {"scale": 1.0, "mode": "fan_avg", "distribution": "uniform", "seed": null}}, "bias_initializer": {"class_name": "Zeros", "config": {}}, "kernel_regularizer": null, "bias_regularizer": null, "activity_regularizer": null, "kernel_constraint": null, "bias_constraint": null}, "inbound_nodes": [[["mixed9", 0, 0, {}]]]}, {"name": "batch_normalization_322", "class_name": "BatchNormalization", "config": {"name": "batch_normalization_322", "trainable": true, "axis": 3, "momentum": 0.99, "epsilon": 0.001, "center": true, "scale": false, "beta_initializer": {"class_name": "Zeros", "config": {}}, "gamma_initializer": {"class_name": "Ones", "config": {}}, "moving_mean_initializer": {"class_name": "Zeros", "config": {}}, "moving_variance_initializer": {"class_name": "Ones", "config": {}}, "beta_regularizer": null, "gamma_regularizer": null, "beta_constraint": null, "gamma_constraint": null}, "inbound_nodes": [[["conv2d_323", 0, 0, {}]]]}, {"name": "activation_322", "class_name": "Activation", "config": {"name": "activation_322", "trainable": true, "activation": "relu"}, "inbound_nodes": [[["batch_normalization_322", 0, 0, {}]]]}, {"name": "conv2d_320", "class_name": "Conv2D", "config": {"name": "conv2d_320", "trainable": true, "filters": 384, "kernel_size": [1, 1], "strides": [1, 1], "padding": "same", "data_format": "channels_last", "dilation_rate": [1, 1], "activation": "linear", "use_bias": false, "kernel_initializer": {"class_name": "VarianceScaling", "config": {"scale": 1.0, "mode": "fan_avg", "distribution": "uniform", "seed": null}}, "bias_initializer": {"class_name": "Zeros", "config": {}}, "kernel_regularizer": null, "bias_regularizer": null, "activity_regularizer": null, "kernel_constraint": null, "bias_constraint": null}, "inbound_nodes": [[["mixed9", 0, 0, {}]]]}, {"name": "conv2d_324", "class_name": "Conv2D", "config": {"name": "conv2d_324", "trainable": true, "filters": 384, "kernel_size": [3, 3], "strides": [1, 1], "padding": "same", "data_format": "channels_last", "dilation_rate": [1, 1], "activation": "linear", "use_bias": false, "kernel_initializer": {"class_name": "VarianceScaling", "config": {"scale": 1.0, "mode": "fan_avg", "distribution": "uniform", "seed": null}}, "bias_initializer": {"class_name": "Zeros", "config": {}}, "kernel_regularizer": null, "bias_regularizer": null, "activity_regularizer": null, "kernel_constraint": null, "bias_constraint": null}, "inbound_nodes": [[["activation_322", 0, 0, {}]]]}, {"name": "batch_normalization_319", "class_name": "BatchNormalization", "config": {"name": "batch_normalization_319", "trainable": true, "axis": 3, "momentum": 0.99, "epsilon": 0.001, "center": true, "scale": false, "beta_initializer": {"class_name": "Zeros", "config": {}}, "gamma_initializer": {"class_name": "Ones", "config": {}}, "moving_mean_initializer": {"class_name": "Zeros", "config": {}}, "moving_variance_initializer": {"class_name": "Ones", "config": {}}, "beta_regularizer": null, "gamma_regularizer": null, "beta_constraint": null, "gamma_constraint": null}, "inbound_nodes": [[["conv2d_320", 0, 0, {}]]]}, {"name": "batch_normalization_323", "class_name": "BatchNormalization", "config": {"name": "batch_normalization_323", "trainable": true, "axis": 3, "momentum": 0.99, "epsilon": 0.001, "center": true, "scale": false, "beta_initializer": {"class_name": "Zeros", "config": {}}, "gamma_initializer": {"class_name": "Ones", "config": {}}, "moving_mean_initializer": {"class_name": "Zeros", "config": {}}, "moving_variance_initializer": {"class_name": "Ones", "config": {}}, "beta_regularizer": null, "gamma_regularizer": null, "beta_constraint": null, "gamma_constraint": null}, "inbound_nodes": [[["conv2d_324", 0, 0, {}]]]}, {"name": "activation_319", "class_name": "Activation", "config": {"name": "activation_319", "trainable": true, "activation": "relu"}, "inbound_nodes": [[["batch_normalization_319", 0, 0, {}]]]}, {"name": "activation_323", "class_name": "Activation", "config": {"name": "activation_323", "trainable": true, "activation": "relu"}, "inbound_nodes": [[["batch_normalization_323", 0, 0, {}]]]}, {"name": "conv2d_321", "class_name": "Conv2D", "config": {"name": "conv2d_321", "trainable": true, "filters": 384, "kernel_size": [1, 3], "strides": [1, 1], "padding": "same", "data_format": "channels_last", "dilation_rate": [1, 1], "activation": "linear", "use_bias": false, "kernel_initializer": {"class_name": "VarianceScaling", "config": {"scale": 1.0, "mode": "fan_avg", "distribution": "uniform", "seed": null}}, "bias_initializer": {"class_name": "Zeros", "config": {}}, "kernel_regularizer": null, "bias_regularizer": null, "activity_regularizer": null, "kernel_constraint": null, "bias_constraint": null}, "inbound_nodes": [[["activation_319", 0, 0, {}]]]}, {"name": "conv2d_322", "class_name": "Conv2D", "config": {"name": "conv2d_322", "trainable": true, "filters": 384, "kernel_size": [3, 1], "strides": [1, 1], "padding": "same", "data_format": "channels_last", "dilation_rate": [1, 1], "activation": "linear", "use_bias": false, "kernel_initializer": {"class_name": "VarianceScaling", "config": {"scale": 1.0, "mode": "fan_avg", "distribution": "uniform", "seed": null}}, "bias_initializer": {"class_name": "Zeros", "config": {}}, "kernel_regularizer": null, "bias_regularizer": null, "activity_regularizer": null, "kernel_constraint": null, "bias_constraint": null}, "inbound_nodes": [[["activation_319", 0, 0, {}]]]}, {"name": "conv2d_325", "class_name": "Conv2D", "config": {"name": "conv2d_325", "trainable": true, "filters": 384, "kernel_size": [1, 3], "strides": [1, 1], "padding": "same", "data_format": "channels_last", "dilation_rate": [1, 1], "activation": "linear", "use_bias": false, "kernel_initializer": {"class_name": "VarianceScaling", "config": {"scale": 1.0, "mode": "fan_avg", "distribution": "uniform", "seed": null}}, "bias_initializer": {"class_name": "Zeros", "config": {}}, "kernel_regularizer": null, "bias_regularizer": null, "activity_regularizer": null, "kernel_constraint": null, "bias_constraint": null}, "inbound_nodes": [[["activation_323", 0, 0, {}]]]}, {"name": "conv2d_326", "class_name": "Conv2D", "config": {"name": "conv2d_326", "trainable": true, "filters": 384, "kernel_size": [3, 1], "strides": [1, 1], "padding": "same", "data_format": "channels_last", "dilation_rate": [1, 1], "activation": "linear", "use_bias": false, "kernel_initializer": {"class_name": "VarianceScaling", "config": {"scale": 1.0, "mode": "fan_avg", "distribution": "uniform", "seed": null}}, "bias_initializer": {"class_name": "Zeros", "config": {}}, "kernel_regularizer": null, "bias_regularizer": null, "activity_regularizer": null, "kernel_constraint": null, "bias_constraint": null}, "inbound_nodes": [[["activation_323", 0, 0, {}]]]}, {"name": "average_pooling2d_31", "class_name": "AveragePooling2D", "config": {"name": "average_pooling2d_31", "trainable": true, "pool_size": [3, 3], "padding": "same", "strides": [1, 1], "data_format": "channels_last"}, "inbound_nodes": [[["mixed9", 0, 0, {}]]]}, {"name": "conv2d_319", "class_name": "Conv2D", "config": {"name": "conv2d_319", "trainable": true, "filters": 320, "kernel_size": [1, 1], "strides": [1, 1], "padding": "same", "data_format": "channels_last", "dilation_rate": [1, 1], "activation": "linear", "use_bias": false, "kernel_initializer": {"class_name": "VarianceScaling", "config": {"scale": 1.0, "mode": "fan_avg", "distribution": "uniform", "seed": null}}, "bias_initializer": {"class_name": "Zeros", "config": {}}, "kernel_regularizer": null, "bias_regularizer": null, "activity_regularizer": null, "kernel_constraint": null, "bias_constraint": null}, "inbound_nodes": [[["mixed9", 0, 0, {}]]]}, {"name": "batch_normalization_320", "class_name": "BatchNormalization", "config": {"name": "batch_normalization_320", "trainable": true, "axis": 3, "momentum": 0.99, "epsilon": 0.001, "center": true, "scale": false, "beta_initializer": {"class_name": "Zeros", "config": {}}, "gamma_initializer": {"class_name": "Ones", "config": {}}, "moving_mean_initializer": {"class_name": "Zeros", "config": {}}, "moving_variance_initializer": {"class_name": "Ones", "config": {}}, "beta_regularizer": null, "gamma_regularizer": null, "beta_constraint": null, "gamma_constraint": null}, "inbound_nodes": [[["conv2d_321", 0, 0, {}]]]}, {"name": "batch_normalization_321", "class_name": "BatchNormalization", "config": {"name": "batch_normalization_321", "trainable": true, "axis": 3, "momentum": 0.99, "epsilon": 0.001, "center": true, "scale": false, "beta_initializer": {"class_name": "Zeros", "config": {}}, "gamma_initializer": {"class_name": "Ones", "config": {}}, "moving_mean_initializer": {"class_name": "Zeros", "config": {}}, "moving_variance_initializer": {"class_name": "Ones", "config": {}}, "beta_regularizer": null, "gamma_regularizer": null, "beta_constraint": null, "gamma_constraint": null}, "inbound_nodes": [[["conv2d_322", 0, 0, {}]]]}, {"name": "batch_normalization_324", "class_name": "BatchNormalization", "config": {"name": "batch_normalization_324", "trainable": true, "axis": 3, "momentum": 0.99, "epsilon": 0.001, "center": true, "scale": false, "beta_initializer": {"class_name": "Zeros", "config": {}}, "gamma_initializer": {"class_name": "Ones", "config": {}}, "moving_mean_initializer": {"class_name": "Zeros", "config": {}}, "moving_variance_initializer": {"class_name": "Ones", "config": {}}, "beta_regularizer": null, "gamma_regularizer": null, "beta_constraint": null, "gamma_constraint": null}, "inbound_nodes": [[["conv2d_325", 0, 0, {}]]]}, {"name": "batch_normalization_325", "class_name": "BatchNormalization", "config": {"name": "batch_normalization_325", "trainable": true, "axis": 3, "momentum": 0.99, "epsilon": 0.001, "center": true, "scale": false, "beta_initializer": {"class_name": "Zeros", "config": {}}, "gamma_initializer": {"class_name": "Ones", "config": {}}, "moving_mean_initializer": {"class_name": "Zeros", "config": {}}, "moving_variance_initializer": {"class_name": "Ones", "config": {}}, "beta_regularizer": null, "gamma_regularizer": null, "beta_constraint": null, "gamma_constraint": null}, "inbound_nodes": [[["conv2d_326", 0, 0, {}]]]}, {"name": "conv2d_327", "class_name": "Conv2D", "config": {"name": "conv2d_327", "trainable": true, "filters": 192, "kernel_size": [1, 1], "strides": [1, 1], "padding": "same", "data_format": "channels_last", "dilation_rate": [1, 1], "activation": "linear", "use_bias": false, "kernel_initializer": {"class_name": "VarianceScaling", "config": {"scale": 1.0, "mode": "fan_avg", "distribution": "uniform", "seed": null}}, "bias_initializer": {"class_name": "Zeros", "config": {}}, "kernel_regularizer": null, "bias_regularizer": null, "activity_regularizer": null, "kernel_constraint": null, "bias_constraint": null}, "inbound_nodes": [[["average_pooling2d_31", 0, 0, {}]]]}, {"name": "batch_normalization_318", "class_name": "BatchNormalization", "config": {"name": "batch_normalization_318", "trainable": true, "axis": 3, "momentum": 0.99, "epsilon": 0.001, "center": true, "scale": false, "beta_initializer": {"class_name": "Zeros", "config": {}}, "gamma_initializer": {"class_name": "Ones", "config": {}}, "moving_mean_initializer": {"class_name": "Zeros", "config": {}}, "moving_variance_initializer": {"class_name": "Ones", "config": {}}, "beta_regularizer": null, "gamma_regularizer": null, "beta_constraint": null, "gamma_constraint": null}, "inbound_nodes": [[["conv2d_319", 0, 0, {}]]]}, {"name": "activation_320", "class_name": "Activation", "config": {"name": "activation_320", "trainable": true, "activation": "relu"}, "inbound_nodes": [[["batch_normalization_320", 0, 0, {}]]]}, {"name": "activation_321", "class_name": "Activation", "config": {"name": "activation_321", "trainable": true, "activation": "relu"}, "inbound_nodes": [[["batch_normalization_321", 0, 0, {}]]]}, {"name": "activation_324", "class_name": "Activation", "config": {"name": "activation_324", "trainable": true, "activation": "relu"}, "inbound_nodes": [[["batch_normalization_324", 0, 0, {}]]]}, {"name": "activation_325", "class_name": "Activation", "config": {"name": "activation_325", "trainable": true, "activation": "relu"}, "inbound_nodes": [[["batch_normalization_325", 0, 0, {}]]]}, {"name": "batch_normalization_326", "class_name": "BatchNormalization", "config": {"name": "batch_normalization_326", "trainable": true, "axis": 3, "momentum": 0.99, "epsilon": 0.001, "center": true, "scale": false, "beta_initializer": {"class_name": "Zeros", "config": {}}, "gamma_initializer": {"class_name": "Ones", "config": {}}, "moving_mean_initializer": {"class_name": "Zeros", "config": {}}, "moving_variance_initializer": {"class_name": "Ones", "config": {}}, "beta_regularizer": null, "gamma_regularizer": null, "beta_constraint": null, "gamma_constraint": null}, "inbound_nodes": [[["conv2d_327", 0, 0, {}]]]}, {"name": "activation_318", "class_name": "Activation", "config": {"name": "activation_318", "trainable": true, "activation": "relu"}, "inbound_nodes": [[["batch_normalization_318", 0, 0, {}]]]}, {"name": "mixed9_1", "class_name": "Concatenate", "config": {"name": "mixed9_1", "trainable": true, "axis": 3}, "inbound_nodes": [[["activation_320", 0, 0, {}], ["activation_321", 0, 0, {}]]]}, {"name": "concatenate_6", "class_name": "Concatenate", "config": {"name": "concatenate_6", "trainable": true, "axis": 3}, "inbound_nodes": [[["activation_324", 0, 0, {}], ["activation_325", 0, 0, {}]]]}, {"name": "activation_326", "class_name": "Activation", "config": {"name": "activation_326", "trainable": true, "activation": "relu"}, "inbound_nodes": [[["batch_normalization_326", 0, 0, {}]]]}, {"name": "mixed10", "class_name": "Concatenate", "config": {"name": "mixed10", "trainable": true, "axis": 3}, "inbound_nodes": [[["activation_318", 0, 0, {}], ["mixed9_1", 0, 0, {}], ["concatenate_6", 0, 0, {}], ["activation_326", 0, 0, {}]]]}, {"name": "global_average_pooling2d_3", "class_name": "GlobalAveragePooling2D", "config": {"name": "global_average_pooling2d_3", "trainable": true, "data_format": "channels_last"}, "inbound_nodes": [[["mixed10", 0, 0, {}]]]}, {"name": "dense_5", "class_name": "Dense", "config": {"name": "dense_5", "trainable": true, "units": 1024, "activation": "relu", "use_bias": true, "kernel_initializer": {"class_name": "VarianceScaling", "config": {"scale": 1.0, "mode": "fan_avg", "distribution": "uniform", "seed": null}}, "bias_initializer": {"class_name": "Zeros", "config": {}}, "kernel_regularizer": null, "bias_regularizer": null, "activity_regularizer": null, "kernel_constraint": null, "bias_constraint": null}, "inbound_nodes": [[["global_average_pooling2d_3", 0, 0, {}]]]}, {"name": "dense_6", "class_name": "Dense", "config": {"name": "dense_6", "trainable": true, "units": 15, "activation": "softmax", "use_bias": true, "kernel_initializer": {"class_name": "VarianceScaling", "config": {"scale": 1.0, "mode": "fan_avg", "distribution": "uniform", "seed": null}}, "bias_initializer": {"class_name": "Zeros", "config": {}}, "kernel_regularizer": null, "bias_regularizer": null, "activity_regularizer": null, "kernel_constraint": null, "bias_constraint": null}, "inbound_nodes": [[["dense_5", 0, 0, {}]]]}], "input_layers": [["input_4", 0, 0]], "output_layers": [["dense_6", 0, 0]]}, "keras_version": "2.0.8", "backend": "tensorflow"}